output_images/models/model-HLS-12-32.pkl_02.npy (npy, 81872 bytes, 1 tensors)

array (column-major) f8 [1, 10224]
00000000: 978a 6efb 482d 533f 9634 b3de 1a76 693f
00000010: be09 9614 e592 653f 72ac 2147 ebcf 593f
00000020: 53bd f2b3 4499 7bbf f08b 21d7 b11c 5ebf
00000030: 86b7 57fb e5a2 50bf 5cd9 6791 ce25 57bf
00000040: 8145 ac7e 9c2b 653f daf2 7753 e707 5bbf
00000050: 34fa 48c1 002f 69bf 4455 2f51 d985 323f
00000060: 210f 794e a628 6bbf 78e6 a2f9 7b16 553f
00000070: 2784 5d03 c1c7 743f 5e42 ac7f 2984 53bf
00000080: 5108 a7ea 8209 573f e400 6318 3107 643f
00000090: c7e0 8d13 56f2 673f 02e1 7b05 ef1c 6dbf
000000a0: 5c25 9648 bfed 73bf 1def 7e85 d3ac 75bf
000000b0: e6ef 9828 30c9 78bf d410 bf12 9069 82bf
000000c0: 7e72 066b 5fa6 663f 9ca6 2eea fe51 703f
000000d0: be26 8baa f2f2 4d3f 1d71 e8c8 23c0 24bf
000000e0: d84e bf71 07eb 5bbf 870f 6db5 1583 693f
000000f0: 50a5 ad3f 395e 53bf 4daf 1142 bc1c 60bf
00000100: e09e a30a b6ac 733f e1cd 9b14 c4bc 333f
00000110: 1f74 5dca cfa0 343f ae66 ab1e 0245 4a3f
00000120: 4ddd e2f8 a4f9 52bf 0dc6 6dae 94d1 46bf
00000130: 40b4 685a 63bb 693f e0a4 f363 ea85 753f
00000140: b327 47f1 2066 633f d838 8270 9c72 5d3f
00000150: 1264 4ffb 1adc 4dbf 4fa8 62bd cad4 3d3f
00000160: 44e6 624e 6e3e 5b3f f9a1 87a3 62c4 583f
00000170: e1de b7f9 6a73 53bf e237 a7cf 0acf 64bf
00000180: d75a 2282 863f 323f 3c6a 4a99 a4bd 553f
00000190: 492b b40d 1551 753f 8617 f6e7 1a08 333f
000001a0: 1eb4 6148 be73 4e3f 241c 1652 9e58 613f
000001b0: 4be1 c05c d065 5e3f 7971 fcee 7300 73bf
000001c0: b7b2 3847 deac 70bf 44ec 1b7f 2e07 6fbf
000001d0: 13db b86d fd01 73bf bfb6 8cdd 1acf 79bf
000001e0: bd6d 8aa9 8407 463f ac7a 20ca 75d6 23bf
000001f0: 140f e1d8 d51b 203f c40d bd54 36af 4b3f
00000200: b4bf b6ad d26e 713f 1228 5611 2c4e 60bf
00000210: 4497 c058 d22f 4bbf 62da d1ab ef82 27bf
00000220: f67e 419e c5d0 593f e103 abe4 0dbe 5cbf
00000230: b9a0 ee26 7403 59bf 6a6f 0fb6 8f52 6abf
00000240: d73c b118 2b3b 55bf 5d35 e14a 0d25 46bf
00000250: cfe5 8b81 0e67 623f 8ae0 c5b2 7747 753f
00000260: 851f 98cb e685 623f 3b2d 8adf 9b5f 653f
00000270: 6414 e0fc 544d 4dbf 8a40 31d3 59ba 1c3f
00000280: 4d7d abbe 2e7d 6f3f 331c b0fd 6f84 643f
00000290: c18a bff8 ccda 5abf 92e1 b4a0 8e9d 6cbf
000002a0: 4719 d552 8983 46bf cec3 2d20 3bf0 6b3f
000002b0: 1ab5 1f51 3afe 643f 90ea 030e 79e8 60bf
000002c0: fd69 87a4 1620 603f 3ba0 e830 345e 593f
000002d0: 624f 3231 551f 553f bf45 31c8 f9c0 6cbf
000002e0: 515c 7254 e0c2 34bf 3ebc 43d7 5a59 6cbf
000002f0: 9a1a 7752 ddfb 6bbf 7b43 fa35 0827 433f
00000300: ecf7 ded0 4c66 24bf 665d 740f 9495 5dbf
00000310: e1b6 adbd f136 52bf abe1 3a23 3112 4abf
00000320: 8f33 f1ba b0ad 613f 472c 838d e3d6 48bf
00000330: 90f4 9155 15cb 31bf 79e6 1b50 126e 61bf
00000340: f49f 3d00 cdfd 5c3f 786b 4ab7 cb80 67bf
00000350: 1532 2397 81a3 61bf 22c8 b160 732d 75bf
00000360: 8169 c9bd 5137 653f 5990 bee4 d02b 78bf
00000370: 2d1d 9afe e6a1 603f 0909 24cf 6b65 553f
00000380: ff33 73d5 1af7 6b3f f1fc de62 1090 793f
00000390: a0e0 dd8d 7bd2 573f 4ff7 a21b 4471 6a3f
000003a0: d4ef b553 011b 393f ff8c e243 4008 4bbf
000003b0: 7e38 59cd 7d45 57bf 833a b961 206a 45bf
000003c0: a456 757d e5b2 54bf 22e1 e8ee a444 563f
000003d0: 3653 900e e448 5a3f aacc 9a97 ca1b 6cbf
000003e0: f9f2 01ce 4bc5 543f b922 8b19 4479 533f
000003f0: 9db5 f85d a265 4fbf cceb 8f79 c2e0 6abf
00000400: 0495 702c ba2d 4abf fb27 c14e 06a2 65bf
00000410: e78d 89e3 a6cb 66bf db4b b291 3902 4dbf
00000420: 0969 1d9c f7c2 43bf 59f0 76fe 5f63 33bf
00000430: c07c 5674 6fcd f0be 13b8 dcb1 c854 5dbf
00000440: ba37 f148 7810 54bf 15d3 cc9b 2f7c 643f
00000450: 7265 0f3d 1b45 633f 2d1b dffd 47dd 5cbf
00000460: ed14 5f24 79b2 53bf 5b13 e94c dd72 563f
00000470: 4650 c443 2dfb 5ebf 4723 2495 b4e7 44bf
00000480: a46e 15a4 8d5f 603f 55a9 e2c2 d0d2 75bf
00000490: 6e4f f82f 75bd 693f b3b6 2e01 cdfa 6e3f
000004a0: 92b7 2df5 d939 773f 4ff6 6004 ad02 773f
000004b0: 33e3 e263 b17e 35bf e350 3cfe 35af 51bf
000004c0: db6b b972 8d97 61bf a007 387d a5aa 62bf
000004d0: eee2 0e85 db4d 70bf c2a9 3312 024f 62bf
000004e0: 8739 eaea d5ae 10bf 6d1f b3ad fae5 6dbf
000004f0: 58e1 7ea4 4a59 75bf 71a5 fa38 7ac1 5fbf
00000500: 31c3 7ebd d678 4b3f 7f6d e410 f513 753f
00000510: e414 8b8d d865 57bf c0ee 069e e7b6 703f
00000520: b263 8342 2d7e 643f dac6 67b1 a831 673f
00000530: 5dea 1edb 616e 653f ab08 899e 67fd 453f
00000540: 9a66 57e3 f299 5fbf 2b30 8cc0 0873 40bf
00000550: e5a5 309f bc70 10bf 09de c32d 212f 59bf
00000560: 7f82 bd61 3ed7 69bf 50b0 fdf6 481e 373f
00000570: 7772 0601 0b38 4d3f 61c6 e6ed 4ce2 67bf
00000580: 98ae 7377 3df2 5fbf 245f 60ef 8736 503f
00000590: a71a e23d 9c5f 69bf 864e 17ac ba76 52bf
000005a0: 5416 f38d 9d51 563f 0e78 1f8d c74c 50bf
000005b0: 1dbc 27b5 2079 563f 3c19 3f73 17b3 67bf
000005c0: de30 8871 9ef1 75bf eae1 a425 61ed 413f
000005d0: 2cfd e5a7 619e 593f 6660 9473 5d74 40bf
000005e0: ed2b 0236 cc73 6ebf 651e b3ba 1d38 3cbf
000005f0: 9b50 9817 95ae 63bf 85df 2135 1dab 55bf
00000600: e4bb 8004 7719 3fbf 557c 381b c94b 5fbf
00000610: 5f1f be93 2783 68bf 4707 a10d 6f16 4dbf
00000620: 4ec9 6ff2 1daf 303f ec4a d62a a1c7 713f
00000630: 87cb 81cd 9930 57bf 2464 ab28 ba7b 383f
00000640: b0d6 1962 cdcb 29bf bfe5 17f9 56d6 633f
00000650: d0a6 1593 2fa6 613f 396f 3324 d38c 4b3f
00000660: c22b f722 50bb 70bf 3db3 21f9 77f7 663f
00000670: ff22 aa10 1c88 7abf 9294 d90e 3c02 65bf
00000680: daf8 daa9 0d74 2e3f d7e6 12a2 f29d 793f
00000690: 4cb2 40cd c07d 6b3f e144 2b09 3744 22bf
000006a0: 215e 6514 e570 5e3f 3fac 38d2 39d9 733f
000006b0: 55a5 2d3e a64f 613f 444c c9d7 f854 5abf
000006c0: 6c78 d903 8604 563f 024a 8640 90d9 32bf
000006d0: 6910 9c0a 5644 503f bad7 00af 8397 5bbf
000006e0: e434 b47a 846d 70bf 5755 7314 2e7d 4d3f
000006f0: 9899 1043 1ded 603f 4a1d a09a a8c9 4dbf
00000700: 7051 04f6 163c 71bf 7293 3d13 625d 40bf
00000710: 3480 b69f 98ef 60bf bc9b 83d4 dcf7 473f
00000720: 360b face e6a3 59bf f4e3 16d2 3a1a 533f
00000730: 7f06 e7d2 7095 36bf 7fbe 3ef7 1552 4b3f
00000740: 5a24 2d02 3b46 48bf 9dd1 a857 c199 23bf
00000750: 5cde cd74 ccb0 46bf e6a2 bbff a0c4 6dbf
00000760: 0c93 00b0 7fcf 1dbf b794 c04e ab53 50bf
00000770: 19b9 a219 fe9a 6fbf 6749 43af 1459 4f3f
00000780: 5c48 f0ad 8c48 75bf 073d 280f 62a9 533f
00000790: 423a f2b3 25b8 82bf 7fa9 76cf c915 54bf
000007a0: 875b 57dc 3008 613f e0c5 e6ce a09f 763f
000007b0: b273 014f 9467 5c3f 7e82 2325 085d 68bf
000007c0: cd00 2fa4 1914 403f 32b6 024f b7c4 633f
000007d0: 9fdf 9ead 9e48 593f 8768 6f22 5001 68bf
000007e0: 7fa8 f5d1 34ac 74bf 7320 b3c0 564c 73bf
000007f0: b719 6372 7202 4e3f 7e0f 963a d895 223f
0.0011704647747385105 0.0031080746462977633 0.0026335214831203204 0.0015754506717040842 -0.006737964983741423 -0.0018378960344527205 -0.0010154004970632526 -0.0014128224626098395
0.0025842720546129243 -0.0016498335879752608 -0.0030741705652695076 0.00028263621896703153 -0.0033152816938882977 0.001287098950838587 0.005073312718963974 -0.0011911778698882251
0.0014060762865573293 0.002444835557156565 0.002923172109543601 -0.003553835715020993 -0.004865405274707992 -0.00529177308629494 -0.006051242942302059 -0.008990407535641877
0.002764879573261602 0.003984447251164671 0.0009139714139447459 -0.0001583141024220713 -0.0017039845179071447 0.0031142639158207616 -0.0011821326322326194 -0.001966827098433577
0.004803382015076102 0.0003011683189548514 0.0003147609044072425 0.0008016834593391386 -0.001158152681041208 -0.0006963706954207796 0.003141111420765813 0.005254664981501039
0.002368034687809628 0.0017973449448934111 -0.0009112483736500884 0.0004551882715399012 0.0016628339013052976 0.0015116656560342208 -0.0011871857340092706 -0.002540131679075395
0.0002784446134084634 0.0013269526872706902 0.0052042791751414985 0.00029040009391000825 0.0009293250193543911 0.0021174518776123797 0.0018553290165198185 -0.004639103761089885
-0.004071110033277029 -0.0037876041541245204 -0.00464056964442851 -0.006301026290015776 0.0006722829594595841 -0.00015134990559403005 0.00012289987029322962 0.0008448615348943191
0.004256079638636768 -0.001990400380866405 -0.0008296753962937294 -0.00017937827752563794 0.001575654016981729 -0.0017542968441122064 -0.00152670233704026 -0.003213196454891977
-0.0012958451141178906 -0.000675803652265532 0.002246406871901675 0.005195109912499283 0.0022611148567683336 0.002609066428993193 -0.0008942284564460554 0.00010958836792096714
0.0038438714012582254 0.002504557354317005 -0.001639080207490082 -0.0034930978487432507 -0.0006870670819488022 0.003410449485663914 0.002562631511855995 -0.0020639767027408953
0.0019684259643615296 0.0015483388593882225 0.0012892085985969017 -0.0035099867396090885 -0.0003167913132044497 -0.0034605764613995496 -0.0034159968088006256 0.0005844869701424471
-0.00015563667005652428 -0.0018056817915005018 -0.001111732554558591 -0.0007956256799479996 0.0021580173265988776 -0.0007580386254856319 -0.00027150412422100815 -0.002127681510384613
0.0017694951975162328 -0.002869031794330675 -0.00215316115018128 -0.00517029828471219 0.0025898548613387255 -0.005901161184656522 0.0020303260433284427 0.001305918962828447
0.003413727197403293 0.006240905769970371 0.0014539915641460857 0.00322783758482973 0.0003830793609365089 -0.000824958209495824 -0.0014203766380833922 -0.0006535204042366769
-0.0012633553613644955 0.001359139506929515 0.0016042925947250103 -0.0034312207106608943 0.0012677421837274368 0.0011885800396830694 -0.0009581606681813741 -0.0032810018860778053
-0.000798908143114702 -0.002640735931014324 -0.0027826556727619137 -0.0008852749919178131 -0.0006030758888571362 -0.00029584020236562075 -1.602409544931567e-05 -0.0017902336034683094
-0.0012246298463369624 0.002500622735534095 0.0023522884371060477 -0.0017617419284634104 -0.0012022192981800365 0.001370159257605161 -0.0018909399069047136 -0.0006379729987041415
0.0019986883568615266 -0.005328002427783159 0.003142098313910261 0.0037817005154100135 0.005670405766847868 0.005617786262573767 -0.00032798605742416774 -0.0010793711925929865
-0.002147461191083872 -0.0022786361894313184 -0.003980500697189566 -0.0022349396182239365 -6.364040994297745e-05 -0.0036497016968474656 -0.005212108204368647 -0.0019382184581594154
0.0008383797203262764 0.005145985878950098 -0.001428090550846855 0.004080681567241562 0.002501572034912824 0.0028312964234310347 0.0026161109207952075 0.0006710773423679502
-0.0019287940934788251 -0.0005019943938307005 -6.271506553958519e-05 -0.0015371154796052242 -0.003154393996667004 0.0003527572762240848 0.0008916906099788031 -0.00291552567724622
-0.001949844385133048 0.0009895637026655158 -0.0030973483654322567 -0.0011269400568964263 0.0013622320764609301 -0.00099486815860628 0.0013716525469325066 -0.0028930147181852866
-0.00535737888322904 0.0005470966673675724 0.001563639990848585 -0.0005021530443256705 -0.003717326020767234 -0.0004305908757484599 -0.002402583308830653 -0.0013225350599252738
-0.00047454028799881324 -0.0019101585320482524 -0.0029922268858548064 -0.0008876840831890464 0.00025457841041922203 0.004340772209064463 -0.001415395925530945 0.0003735856522957845
-0.00019680864447806567 0.002421541089230955 0.0021544388952648777 0.0008407622302928137 -0.004084885629207004 0.002803549120520192 -0.0064774605076614025 -0.0025645421035727723
0.00023234049597493125 0.006254146371412714 0.003355862203554138 -0.0001393620664971512 0.0018579709154290596 0.004845834602330844 0.0021131750994995238 -0.0016071729761690948
0.0013438519230457814 -0.00028762599733869753 0.0009928550957179155 -0.001684073064109877 -0.0040106940243848956 0.0008999323844373447 0.002066189911164428 -0.0009090493451830242
-0.004207696620387544 -0.000499413383732701 -0.002067373364937475 0.0007314518234381377 -0.0015649560918126865 0.0011659216328168106 -0.0003446007202932768 0.000833759999741404
-0.0007407940032432378 -0.00014954075943908194 -0.0006924627610791034 -0.003633799029433826 -0.00011371819346146452 -0.0009965107847247753 -0.003858085908254993 0.0009566641806720123
-0.005196141747562857 0.0012000520333719804 -0.009140295557043324 -0.0012258978657465334 0.0020791010199263135 0.005523327023568808 0.001733679611809463 -0.0029740485270937636
0.0004906773759714378 0.0024131374594478444 0.0015431928245401639 -0.002930313599319115 -0.005047041252831729 -0.004711474302162444 0.0009158190557847977 0.0001417948199496886
