output_images/models/model-HLS-12.pkl_02.npy (npy, 63440 bytes, 1 tensors)

array (column-major) f8 [1, 7920]
00000000: 44f0 449d 4c34 5d3f fc93 d3a1 ead9 723f
00000010: e94f 6268 ae30 603f af75 97bd 6cb0 583f
00000020: ef05 329f d7e8 78bf 0938 9248 cb83 3abf
00000030: 090f efcc 950a 52bf e1eb d17d d47e 56bf
00000040: 6673 eaf4 9313 613f 09ce 1226 abab 44bf
00000050: 1d70 057f a610 56bf 7db1 bbb8 f086 503f
00000060: 4c09 a3d0 e2e6 71bf ef1e c110 43ff 46bf
00000070: f813 fa06 2482 783f 5388 7be4 a4b8 5abf
00000080: 1976 3976 f329 633f 95ea 9372 bedf 6c3f
00000090: 62fe 12d8 9681 703f 7c19 c700 9166 6cbf
000000a0: 3e82 3599 7211 75bf 3e96 8b0a 4d27 72bf
000000b0: e772 b378 745a 7bbf b712 5aca 2f43 85bf
000000c0: f37f 2e09 6082 613f 1ca0 c174 bb7d 6b3f
000000d0: 208b 4a8a 84b7 613f 93d7 d41d 7382 563f
000000e0: e231 cf88 7f6f 4cbf 3a0e 4fce 85ef 6a3f
000000f0: d692 e6aa 1325 62bf 0ce0 d6b3 81e3 69bf
00000100: 627b 59b2 f054 743f db71 95f3 0654 30bf
00000110: 70d0 df45 5cb0 2ebf fc61 41e7 eec8 553f
00000120: 6867 7984 4a3f 42bf 2112 538b 340e 66bf
00000130: 5edd f0db 71eb 653f 1be7 32f9 3bf0 763f
00000140: 4862 aa36 4f11 593f f525 3b29 0e02 4b3f
00000150: 1482 c856 ad54 50bf 7a3a 0617 f5b3 4cbf
00000160: 3274 85d3 9a99 403f 5fb2 6746 9217 643f
00000170: ab25 0f0d 1fb0 5abf 6027 8020 945a 65bf
00000180: e53d 65a6 716a 2a3f 616d c061 3017 053f
00000190: 7582 9e9b a9d1 773f e1fd 1d63 d4a0 273f
000001a0: ece6 574f 08aa 553f a718 e5a5 93d7 663f
000001b0: b390 8552 5b88 643f ab17 cef9 e9db 71bf
000001c0: a243 a468 668e 70bf 5a2a 1d7a ef68 65bf
000001d0: 4d41 7fdc 86f3 72bf f9d3 bc00 5a37 7ebf
000001e0: bf2e 0b31 47de 35bf c326 1e8c a9b1 11bf
000001f0: 64e9 80fb e917 52bf 0858 9194 3a55 3d3f
00000200: 2731 d7bf 098e 733f 28a1 4c2c 174a 65bf
00000210: a564 16f3 6f77 58bf 0b30 2a6b a676 4a3f
00000220: 03d1 8e46 d4c8 603f dd14 832d 03a6 66bf
00000230: 159b 2ebd a454 67bf aa96 7f38 2c69 6abf
00000240: 6eae be34 6acd 2fbf 33dd 55ca dac4 60bf
00000250: b8ea 94d9 c5c3 613f d685 41ac a448 783f
00000260: 218c ba5b ce5d 633f 17c3 f0ea 26ed 533f
00000270: 28e7 e0b5 4a26 48bf 2542 abb6 92cc 3ebf
00000280: 4bb2 916f 0a56 713f da7e 9f64 75fe 703f
00000290: f157 77b6 a8a2 53bf 8685 7495 3f85 68bf
000002a0: bae6 df3a de4f 4ebf 120e 13dd 27d9 6d3f
000002b0: 9cf5 8a21 fb11 673f 00d0 6ae4 662c 68bf
000002c0: 5870 c6af e393 583f c3da 33c8 bba1 513f
000002d0: f9d2 e813 a87d 603f eae1 88ef c539 70bf
000002e0: eec9 cf76 510d 42bf 2b99 8b8c 1f12 6abf
000002f0: b293 e2dd 4445 60bf f30d 54ad ffb6 563f
00000300: 2074 52c8 3479 56bf 41f3 6dc5 244c 60bf
00000310: e5e0 dd19 7f1f 63bf a308 2721 ed4d 58bf
00000320: 21f5 3d2a fed0 603f 8286 bfa0 e2e1 59bf
00000330: fc16 60df 5a71 4ebf 3ac5 6047 7a3f 5ebf
00000340: d5c3 ebf9 4982 613f 63c8 aa51 3829 72bf
00000350: 3923 d1f1 21ca 70bf c25c f409 933a 75bf
00000360: cff6 ba8e 3422 673f b011 be76 8786 7abf
00000370: 1f42 3d66 6a2f 6a3f fdc8 9d2f 0b11 553f
00000380: 6acd 04a4 94d0 6c3f 73bf e72a 979f 803f
00000390: b3b2 eacd e40d 543f 5eda 024d 91dd 753f
000003a0: 0573 78d6 a684 533f 6a96 d9ca 3a48 41bf
000003b0: a94d aa0c 0159 3b3f dcdb b582 b76c 15bf
000003c0: 9d4c f55c 6c77 5cbf 7302 6d6b ef30 5d3f
000003d0: f60a 5cc2 71a0 5f3f 891b 174d 3b6c 71bf
000003e0: a5aa f033 5306 5b3f 640f 0b4f ac35 553f
000003f0: f230 c1f1 1738 54bf fb4e 52d0 286d 6cbf
00000400: 39b6 3189 a490 3ebf 14e7 8a81 8e17 60bf
00000410: 8b88 f8f7 25f5 54bf 8dff d41d a2aa 41bf
00000420: e303 dfa8 9852 26bf 3a66 a185 b847 583f
00000430: 8397 c61b 770b 273f 7551 45ed eb82 63bf
00000440: f823 f2c0 d5b5 60bf bca1 338e ecca 693f
00000450: 7e76 c927 902c 5d3f 4d3a dc26 b1a9 63bf
00000460: 5144 8071 f804 393f 0ad3 b39c 7570 443f
00000470: 6f9d 1c33 709d 6fbf 48e4 6ab6 3a60 4a3f
00000480: b90d 4ac9 5857 553f b678 5851 02f1 7abf
00000490: ae38 4c7c 472b 703f 2812 831c b92b 6f3f
000004a0: f71b 31fb 3083 793f c1de 0c86 5406 7e3f
000004b0: 5b2f 2cdb efc3 52bf e2d0 7134 271e 48bf
000004c0: d54f 64ee cac8 61bf 6a89 f32f 38e2 63bf
000004d0: f9a9 239a f3b2 66bf a3b8 f46d 0143 67bf
000004e0: cc7b ed9d ac3f 55bf 4e5e 14c1 e4c8 72bf
000004f0: dd2d 94a7 1d80 71bf d49c 50dc e5fd 52bf
00000500: 68d1 4be6 9697 443f 9572 0d94 e942 7a3f
00000510: 4b5e 8f7f 2853 52bf 8590 e954 93fd 753f
00000520: 8e11 99c5 9fe1 723f c760 aeae d433 693f
00000530: 9220 b017 8405 663f 2545 cdba e2d8 3ebf
00000540: 6428 dad5 1a28 57bf bd98 135f bc41 523f
00000550: 7b1c 64ac 73fc 3ebf b2a0 1d5c c4d8 56bf
00000560: a0c0 61fc 6707 71bf ecfe b681 5b13 463f
00000570: 6814 6c64 59f9 3f3f 55d1 0a2c cf9d 70bf
00000580: 448a a0c6 a77d 4ebf 2b47 486d 8bce 2f3f
00000590: 3631 432c 2b12 75bf c043 e0ea ce9a 39bf
000005a0: 8678 9867 3213 563f 197c 8ed2 75f0 35bf
000005b0: a226 8776 1c19 5d3f 51e6 d29d 3e55 70bf
000005c0: e9a0 700c 583c 7ebf 2122 3960 b5cc 373f
000005d0: 9417 bb4f 77ec 563f bbd9 6118 28e5 37bf
000005e0: ddc0 f82b 0725 6abf 2fcf eca3 752b 44bf
000005f0: fbd6 bf87 ddd0 67bf bf84 f6d3 6ef5 44bf
00000600: 9b02 cc31 2967 5bbf 3bc3 ad8d d801 61bf
00000610: ed6b 61c4 1e2d 66bf 4833 f469 3ea1 25bf
00000620: f2fb 77de 7415 313f 39be 71d4 4b3d 773f
00000630: a403 b8eb d577 55bf cd2d 60f4 2673 4c3f
00000640: bc66 94d7 cbbc 453f cf3b 66d5 8726 623f
00000650: 7baa 9449 d3a6 673f bb87 d80a 7d24 e7be
00000660: 1da1 e69f f269 70bf aac1 6e2c af1a 6c3f
00000670: 6baf efb2 e07f 7cbf e447 e8d6 de50 73bf
00000680: 670e 5955 d9c3 2f3f bf17 9549 a900 793f
00000690: ad00 99de ff05 703f f662 eb2c 5c52 223f
000006a0: 3b94 80d9 5291 603f c942 4808 d7f2 713f
000006b0: 1739 e6bb 95e1 6b3f 7dc6 1278 709c 55bf
000006c0: f846 ba37 ed63 5e3f a87a 9d6d cba2 323f
000006d0: a0cb 89fd 7dc0 593f 8dc7 c565 1a75 67bf
000006e0: 3bc9 7ae1 f8e4 79bf 86a7 29cd f6c3 3e3f
000006f0: 5858 b6eb bb7b 583f 8498 7491 eee9 58bf
00000700: 8942 294d 9833 6dbf ca57 aaa2 c499 44bf
00000710: faa4 6ce7 9ac6 55bf 2ef8 d620 1d51 5b3f
00000720: 38ff cc02 6037 56bf d24b c7dc de9b 453f
00000730: 2e5b 2dd7 fadd eb3e 06ea a81c bbbc 553f
00000740: fe11 50de 64d7 51bf 7128 c264 3f08 3fbf
00000750: c5ac ffdd a636 3fbf 0da6 ed83 1e59 72bf
00000760: 9d08 8762 8613 4cbf d763 e917 8cc8 4dbf
00000770: a228 24eb c8d9 74bf 3c82 9c38 1111 643f
00000780: ab43 bb5d 9f29 75bf 064e ae1b 7c52 583f
00000790: fbcb b8e2 e7a9 83bf 5072 6c2a 10d3 62bf
000007a0: 7dbd 7d1d 8bd8 643f 30ae a760 8b6f 763f
000007b0: 5fe1 c414 55cb 633f 8f44 3fd2 b7dd 65bf
000007c0: c979 ec3c aa28 043f 45a3 73e9 d486 5c3f
000007d0: cc73 d48d c4ae 633f 7bff cf3a fd35 68bf
000007e0: aea3 21ad 271b 77bf 96d9 f67a 6969 79bf
000007f0: 882b a047 1fdb 453f 7bf9 358d b450 533f
0.0017824886500213003 0.004602352649475169 0.0019763380433435074 0.0015069066924902998 -0.006081430695418429 -0.0004045840547143303 -0.0011011565108995389 -0.0013730120765831288
0.002084530809339946 -0.0006308160483485269 -0.0013467431964135975 0.0010087347790729 -0.004370580669446799 -0.0007018163173677354 0.005983486873110337 -0.001630936649171595
0.0023393397439537386 0.003524658172520854 0.004029835924654531 -0.0034668762293421067 -0.005143592500957582 -0.004432011549146573 -0.006678061453581497 -0.010382054674900372
0.002137363023805955 0.0033558522464325457 0.0021627033878116736 0.0013738750634053373 -0.0008677838064783917 0.0032880414387095576 -0.0022149452335774407 -0.003160241437139893
0.004963817807577127 -0.00024914903368314167 -0.00023413778666248357 0.0013296444931453202 -0.0005568612913961881 -0.0026923204664817267 0.002675745373860102 0.005600199004385488
0.0015300057954502778 0.0008242196222109631 -0.0009967510951655089 -0.0008759447792259921 0.000506592367894526 0.002452645963094732 -0.0016289046509306664 -0.0026066678146933614
0.00020153653458486391 4.02270927397318e-05 0.005815184145746434 0.00018026917092227229 0.0013222771789273514 0.0027883418798949236 0.0025064262046488816 -0.004360116928074402
-0.0040420532552766526 -0.0026135136876395517 -0.004626776506441677 -0.0073770061242628355 -0.0003336833770333051 -6.749722800072481e-05 -0.0011043343529438471 0.00044758491691732115
0.004774129947190431 -0.0025988056753655404 -0.001493319822065944 0.0008076012221223129 0.0020488878257883827 -0.0027647077623408193 -0.0028479783590741417 -0.003223978394077805
-0.0002426330705679216 -0.0020469926118341863 0.002168547082559282 0.005928653005044157 0.0023640661655277705 0.0012162094169633814 -0.0007369866177733041 -0.00046995717881962085
0.004232445492658397 0.004148920599589901 -0.0011984489045651049 -0.002993225276114844 -0.0009250483615225937 0.0036435869775191055 0.0028161911871779754 -0.002950859986720289
0.0015001033308186442 0.0010761579331394634 0.0020130427140209154 -0.003961346803912561 -0.0005509040616956098 -0.003182469958448971 -0.0019861550382125 0.001386403736717831
-0.0013716712431126668 -0.0019894331157374327 -0.0023343546335433557 -0.0014834228246490076 0.0020527805481253135 -0.0015797341502480637 -0.0009290403093024919 -0.0018461889390091872
0.0021373219345765895 -0.00443384170164238 -0.004099018665393577 -0.005182813997883064 0.0028239275469264867 -0.006475953250518904 0.003196437655710107 0.0012858018148703125
0.0035174277437818773 0.008116894718994882 0.001224015657196248 0.005338256436678705 0.0011912946009779446 -0.0005274092743092322 0.0004172923624221289 -8.17286497091086e-05
-0.001737457106931107 0.0017816865999550596 0.0019303427629330772 -0.0042536083651104695 0.0016494572189552994 0.0012945349409827162 -0.0012340768653472081 -0.0034700200217886424
-0.00046638504972560145 -0.0019643576927962456 -0.0012791510379277806 -0.0005391398987413129 -0.0001703082420459182 0.0014819433186147439 0.0001758177658192605 -0.0023817642160485716
-0.0020398306729174608 0.0031485195373656943 0.0017806442039253463 -0.00240025138817338 0.00038176599036982445 0.0006237577703403785 -0.0038592521094817293 0.0008049284632171217
0.0013025633863045073 -0.006577500394568661 0.003947524299986833 0.003805028482107415 0.006228629429705804 0.007330255670971731 -0.001145347818865403 -0.0007360164098728884
-0.002170940732989716 -0.0024272057922740025 -0.0027708776334425225 -0.0028395679397795344 -0.0012969194137537497 -0.004586118289146747 -0.004272571409511508 -0.001159166787383194
0.0006284224333215462 0.006411468901970215 -0.0011184592715291093 0.005368781580362141 0.004609703167777103 0.003076472659312743 0.002688177102303576 -0.00047069106476723056
-0.0014133703292906969 0.0011143054546721009 -0.00047281097467117395 -0.0013944547249256476 -0.004157453722754806 0.0006736943063785062 0.0004878848307473039 -0.004056748643666748
-0.000930506631679436 0.00024266674030620194 -0.0051442800942818525 -0.00039069701858901115 0.001347350333510218 -0.00033476711774399617 0.0017760065039617375 -0.003987545581531985
-0.0073817672155558145 0.0003631537258326507 0.0013991513396134124 -0.0003646109474923183 -0.0031914844583057337 -0.0006155323424992027 -0.002907211948690922 -0.000639609446739929
-0.0016725446977831407 -0.0020760755118590913 -0.002707061855330198 -0.00016502272499288096 0.0002606783222915402 0.0056736909965447386 -0.001310309321411498 0.0008682193954440643
0.0006633754084390468 0.002215638446791491 0.0028871657092584524 -1.1035219667002738e-05 -0.004007289650339166 0.0034306928023044208 -0.006957891207075888 -0.0047157959620722535
0.00024234798427090755 0.006104146269825194 0.003911971559830513 0.00013978362263491307 0.002022420707378928 0.004381980867507359 0.003403465699370344 -0.0013190363245424712
0.0018548790530172315 0.00028436151989367576 0.0015717726111261557 -0.002863456304276596 -0.006321880522295149 0.00046944404053894 0.0014943442500672446 -0.001520617462867275
-0.0035646414410524557 -0.0006286821493002245 -0.001329089425505635 0.0016672882514821119 -0.0013559758765068885 0.0006594503589049067 1.3288072954571036e-05 0.001326735235706368
-0.0010889515917834598 -0.0004735140580655112 -0.0004762799635488864 -0.004479521942678766 -0.0008568197418343974 -0.0009089168596104713 -0.005090508306475313 0.002449544558558862
-0.005166647457102973 0.0014845096581880281 -0.009601413351537849 -0.0022979083763757027 0.00254466219842414 0.00547747082098797 0.0024162923565677476 -0.002669199968274478
3.844995045753118e-05 0.0017411307542778015 0.002402671713424875 -0.0029554315465247206 -0.00564113138725812 -0.0062040443730694474 0.0006669905408228519 0.0011789096068635918
