output_images/models/model-HSV-12-FULL.pkl_02.npy (npy, 63440 bytes, 1 tensors)

array (column-major) f8 [1, 7920]
000000 89 24 02 54 42 6a 74 bf 9d 00 99 83 f9 d4 80 3f
       -0.0049841490691814394 0.008218716934721032
000010 2a de f9 58 b1 39 7b 3f 9b 03 71 9f 2b 72 51 bf
       0.006646816982189866 -0.0010648180011829436
000020 34 1b 45 ed 86 3c 56 3f aa aa 87 e1 7d 6f 71 3f
       0.0013572042126541286 0.0042567174173010845
000030 14 cc 68 08 4f ba 77 bf 03 b8 fa b5 29 45 69 bf
       -0.005792912218157493 -0.003084737268941319
000040 de ac 97 1d 81 09 6e 3f 71 3a c1 40 74 76 78 bf
       0.00366664140596172 -0.00597234164531689
000050 c2 f4 d0 42 d3 37 6e 3f d3 d1 75 e1 aa 0f 50 3f
       0.0036887289229797513 0.0009802979237437573
000060 e1 21 a3 14 d4 3c 79 bf e6 0d 21 79 36 aa 67 3f
       -0.006161526145838953 0.0028887809685629205
000070 45 01 9a c3 99 89 76 3f af a0 06 0d fc bc 40 bf
       0.005502319947140959 -0.0005108099667739031
000080 00 76 5c 9d 62 c9 74 3f 7b 79 57 a8 52 3c 7f 3f
       0.005074868405953392 0.007625887757482959
000090 28 c4 24 e1 e0 a5 5e 3f b1 39 15 da c0 d6 1e bf
       0.001870603188376183 -0.00011764099192144193
0000a0 46 e5 a2 b0 18 99 2b 3f ce a0 f1 78 0f a9 7f bf
       0.0002105562819616857 -0.00772958797379193
0000b0 57 4a f5 09 ae bb 58 bf 5c e3 8c 5b 95 3b 7d bf
       -0.0015095901106475706 -0.007136901310155288
0000c0 96 de 46 b3 ab d6 52 bf ff 3d 30 e3 e8 65 58 3f
       -0.001149814296793316 0.0014891409198333203
0000d0 ea 02 8c 19 b6 9b 72 3f e9 e2 33 24 d2 76 63 bf
       0.004543029143633895 -0.0023759941410584806
0000e0 a9 fc 83 2e b8 67 64 3f 61 6c 0f 4c ec bd 83 3f
       0.0024908635424477255 0.009639593192266984
0000f0 4d 79 02 34 24 26 75 bf cd cd 59 d6 b7 dd 10 bf
       -0.005163327616314395 -6.433901361351594e-05
000100 f7 3c cd 7b 96 cf 87 3f a6 88 ea ba 66 8e 3d bf
       0.011626411107185748 -0.00045099266109550407
000110 a6 a5 4f 4b 13 8c 48 3f 3e ea b7 1d 28 af 7e 3f
       0.0007491201600916999 0.007491261199442932
000120 7f bc c5 d9 d2 25 70 bf de d3 da 6b e5 57 70 bf
       -0.003942321429675321 -0.00399007432649953
000130 1f 27 f9 74 44 58 5f 3f a1 79 11 5d c0 ad 76 3f
       0.0019131344341922275 0.005536796016797047
000140 2c 1f c4 55 73 f8 68 3f b4 de d5 22 dc 7b 73 3f
       0.0030481579434570496 0.004756793886705846
000150 d6 d3 6a ff 4a 45 76 bf 4f 69 49 1e d6 c5 6e bf
       -0.00543717666612494 -0.003756445121593156
000160 2a 87 f6 e6 2a 3c 75 3f 86 a4 64 97 6a c2 57 bf
       0.005184333407130906 -0.0014501610690536306
000170 ec b4 1c 33 44 30 51 bf 07 c2 a0 eb e2 dc 63 bf
       -0.0010491052639268151 -0.002424662784527468
000180 22 90 cc 86 ac 91 5f bf a3 e1 eb 19 1f 6e 65 3f
       -0.001926821215598736 0.0026159865805050627
000190 1b 18 11 f9 2e 3f 78 3f a1 88 69 13 46 66 55 3f
       0.0059196314696859055 0.001306122239519904
0001a0 dd f8 bd 77 26 5a 6a 3f 14 23 b1 bd 2d 2a 74 3f
       0.0032168151209922406 0.0049230372197335455
0001b0 58 a7 16 41 a7 c5 61 bf f2 ff a5 b4 f0 6d 72 bf
       -0.0021694437679870386 -0.004499378448940649
0001c0 00 74 6c fe 19 5b 5d bf ca f5 2c a6 a9 f2 65 bf
       -0.0017917398306004362 -0.0026791871509021835
0001d0 86 34 8e cd c9 d7 53 3f d1 1c e4 6c 14 81 74 bf
       0.0012111159069008461 -0.005005912577195918
0001e0 28 6f 49 f3 b8 2d 60 bf 83 b2 86 a6 c3 9e 43 bf
       -0.001974927168971425 -0.0005987601589843714
0001f0 6c e1 7a 49 2e 06 56 bf 55 e9 7a 80 2e db 52 bf
       -0.0013442470571317323 -0.0011508897895696386
000200 ee 06 1e f6 e2 9a 79 3f d0 e2 6e 82 05 bd 39 3f
       0.006251226966812002 0.0003927362872065245
000210 eb 5e a3 7e aa 2e 79 bf 4b 1a 3f 96 34 8a 68 3f
       -0.006148019785733298 0.00299558897856692
000220 04 5c 7a e9 ac bf 86 3f b3 d0 42 23 80 4a f3 be
       0.011107779383833012 -1.8397348143309784e-05
000230 54 3b 99 df 3a 47 4b 3f 4f d4 ce bf 08 a6 5b bf
       0.0008324658840111834 -0.00168753485125463
000240 d1 0f 70 46 6f 51 62 bf ca bf ea 84 c8 7b 55 3f
       -0.002236096700928038 0.0013112505145436043
000250 5b f4 d9 aa 26 1a 62 3f 1b 3c 5c a3 82 4c 78 3f
       0.0022097354147363863 0.005932340912990798
000260 41 0e 9f 61 f2 6a 73 3f 4b 07 36 38 c6 23 72 3f
       0.004740664293368336 0.004428648276531731
000270 70 e7 ff 7c b8 90 7b bf 4a 65 0e 66 28 98 34 bf
       -0.006729813248961367 -0.00031424509330120877
000280 51 43 ef 67 61 2a 88 3f ee d6 0c c8 2a 1e 56 3f
       0.011799584373791612 0.0013499658381994034
000290 7c 54 61 e7 12 e4 50 3f 87 a8 4a 59 53 8c 27 3f
       0.0010309395415977465 0.000179658102429873
0002a0 ba 20 01 13 7a a7 6f bf a3 c9 d5 e0 55 61 6a 3f
       -0.003864038873903378 0.0032202412900741036
0002b0 f0 20 74 3d da 10 4e 3f 8b 55 08 0e e9 7e 72 bf
       0.000917536318326943 -0.004515562410707284
0002c0 cb 4e e4 a7 62 a4 73 3f 74 55 01 61 c2 19 63 3f
       0.0047954419844875125 0.0023316189254198264
0002d0 c5 3a 80 7f e2 85 73 bf 52 52 33 4f 31 b2 3e bf
       -0.004766354330071725 -0.00046838477937897083
0002e0 62 67 2f 3a ff 76 6b 3f 98 e0 d0 fa c6 ad 61 bf
       0.0033526406200338624 -0.0021580587695347424
0002f0 e9 8a dc 21 05 98 15 bf 58 bd a8 18 d0 80 81 3f
       -8.23739178171069e-05 0.008546472313439565
000300 9e 33 37 d2 b6 d5 78 bf 66 32 ba 7b 70 e4 76 bf
       -0.006063188691268899 -0.005588950527123692
000310 e6 5e 0b 1f 16 1e 62 bf cc e5 c4 40 49 1a 70 bf
       -0.0022116119438172375 -0.00393131842093326
000320 e8 5e 0f 6c 5a 9f 72 3f 6d cb 71 02 fe c7 67 3f
       0.004546502314916025 0.0029029809116364797
000330 c6 cc a7 a9 0c c2 6c bf d0 31 f6 62 55 09 3f 3f
       -0.0035104987448391937 0.0004735787833503287
000340 14 d8 1b b6 85 3b 86 3f 5d 77 dd 02 46 fe 42 3f
       0.010855717296617974 0.0005796281672976012
000350 fd 6c a3 97 cb 2d 5b bf 6b 0f 82 2f b9 6a 7e bf
       -0.0016588676649494365 -0.007425998097577362
000360 bc 49 32 13 c9 c1 6e 3f fd ea 9e 90 96 17 67 bf
       0.003754513477880665 -0.002818864891165672
000370 32 f4 f0 6d ad 0d 80 3f f5 64 26 4f cf f4 6e bf
       0.007838587682380636 -0.0037788437850393383
000380 62 84 f7 2f 27 e5 74 3f 65 17 f8 3b 1c 17 72 3f
       0.005101349902788406 0.004416570940071062
000390 fa 77 c4 26 99 27 58 bf bd 5c 5d b4 77 12 7e 3f
       -0.0014742847079740593 0.0073418308218926006
0003a0 bd fd ad c2 54 5f 7b 3f b6 cd d9 0c 66 31 69 3f
       0.0066827116924054715 0.0030753129165590155
0003b0 96 4d 39 8f a8 62 72 3f 72 cb 8b df ad d9 1a 3f
       0.004488619265959134 0.00010242580163914524
0003c0 60 2a 15 35 2b 56 74 bf 68 28 e1 64 53 9b 6f 3f
       -0.004964989451148399 0.0038582447805640026
0003d0 21 da a0 68 7e 13 60 3f a8 52 4b 53 37 5d 6a bf
       0.001962420360565945 -0.003218277032241385
0003e0 61 21 3d 45 d4 af 81 3f 7e 6b 12 22 1e 9a 65 3f
       0.008636148798942757 0.002636965612123842
0003f0 de 78 cc 19 4e c7 76 bf ce c2 86 79 fd 5a 6b 3f
       -0.0055611658870289 0.0033392859151820447
000400 e6 71 88 cf eb 05 5b 3f 95 26 46 ad 19 6c 65 3f
       0.0016493609274511544 0.0026150228024491387
000410 8b 59 5d 29 15 e3 57 3f ed 75 43 79 82 cb 66 3f
       0.0014579493194638328 0.0027825878442928526
000420 fd 43 93 61 25 29 77 bf c5 6b 32 c9 b4 c9 5e bf
       -0.0056544742776205555 -0.0018791451919131102
000430 10 ba 48 11 e3 97 4d 3f ae 0e 2c 77 1e 0d 7f bf
       0.0009031161048989617 -0.007580870634004517
000440 99 80 86 06 54 6e 70 3f 5e f5 df 9c 85 ae 6b 3f
       0.004011467194146822 0.0033791169762468617
000450 cf 2d d8 0a 35 9b 5b bf df 28 0c 63 10 7a 57 bf
       -0.0016849534980590724 -0.0014329109218942854
000460 75 b6 7d 9a ff ba 3d 3f b2 c3 aa 8b d9 51 48 bf
       0.0004536508590636598 -0.0007421791300058404
000470 a0 ef 92 47 7b 35 d4 3e d6 7c 5f 60 b6 bc 57 3f
       4.818180167006416e-06 0.0014488011379326002
000480 de 61 d7 e4 fc 07 54 bf 42 fe 9f 79 82 20 5e bf
       -0.0012226075808624485 -0.0018388055964350257
000490 85 f4 b5 22 bb e6 80 3f 02 ca bb 25 25 2b 2f bf
       0.008252584454334641 -0.00023779705485756092
0004a0 b7 9e 18 68 de ce 7c 3f 9f 81 99 ed c1 3a 65 3f
       0.007033222938424614 0.0025914943369544498
0004b0 33 b2 c8 10 ac 88 73 bf a3 29 98 97 df 63 6b 3f
       -0.004769012576201481 0.00334352178902471
0004c0 e2 9f 24 35 9b ad 6f 3f 28 57 b8 bd b6 ad 21 bf
       0.003866961612533957 -0.00013487678266759754
0004d0 f7 e8 0a 94 c9 88 4a bf b4 18 6f c1 db ab 78 bf
       -0.0008097633618356072 -0.006023271961515576
0004e0 87 d2 a0 74 c8 88 35 bf 1e a5 20 a5 cb 39 06 bf
       -0.00032858747420342515 -4.2392279866307887e-05
0004f0 49 c3 f8 84 36 b3 7b bf f9 c3 44 f3 1c e3 72 3f
       -0.006762707678306176 0.004611123167976843
000500 98 7e 37 c6 21 e0 6f 3f 5a dd f5 01 41 44 87 3f
       0.003891054120444281 0.011360652801825456
000510 e7 e8 8f 66 a8 41 76 bf 32 5a 96 0f bd 97 7e 3f
       -0.005433709921812225 0.007468927878469022
000520 6b e3 48 7d a2 c4 65 3f 24 db ee a7 0e ee 59 bf
       0.0026572393055883012 -0.0015826361775290254
000530 6c 23 2f 49 22 42 64 3f 5f 82 4c 2e 99 5b 09 3f
       0.002472941364861139 4.836617680426392e-05
000540 e2 9c 0c fc e1 b3 74 bf 93 19 08 52 0b 93 6b bf
       -0.005054362060753466 -0.0033660145857112383
000550 eb 62 8c aa 31 34 38 3f 71 26 45 2c f7 3c 65 bf
       0.00036932194284271133 -0.0025925471874515484
000560 34 fc 9f 22 51 4c 65 3f df 89 a1 ee dd d9 4b 3f
       0.002599867312710136 0.0008499463704192931
000570 96 08 c7 fc 8e a2 63 bf cd 40 3d 36 64 70 71 bf
       -0.0023968498919382892 -0.004257575466752606
000580 e5 2b a9 42 66 31 43 bf ca 51 1b 12 01 b1 42 bf
       -0.0005857228582696298 -0.0005704169490977015
000590 22 6c 29 47 86 df 21 bf c0 9e 3c ea f8 9b 51 3f
       -0.00013636125693747373 0.0010747843561577514
0005a0 b3 e6 c7 8c 7e e6 62 3f 07 98 e9 f0 7b 99 53 3f
       0.0023071738889911208 0.0011962614404636988
0005b0 1d aa 60 6f 27 b7 66 3f 0a 68 67 6b ab ae 64 bf
       0.0027728815284906575 -0.0025246952093143137
0005c0 81 24 aa 52 31 83 7a bf 2a 8a 98 be a0 bf 78 3f
       -0.006472771327602379 0.006042125614416119
0005d0 e6 72 3c e0 ec 3b 57 bf cc 01 ec 27 37 4f 53 bf
       -0.0014180958978108837 -0.0011785544044756622
0005e0 e5 ce d5 50 64 29 36 3f 21 17 c7 e0 d9 80 58 bf
       0.0003381605063943318 -0.0014955642428601883
0005f0 4e 6b 56 77 49 b8 3b 3f 02 f4 31 86 02 fa 41 3f
       0.00042297166450005065 0.0005486023259347885
000600 08 79 b5 25 dd 60 34 bf 43 61 72 be ee 6b 6b 3f
       -0.0003109493170167098 0.003347364708656071
000610 de 32 52 c9 54 97 60 bf 63 b8 34 5b e4 d1 78 3f
       -0.0020252853378849153 0.006059543625538041
000620 bb e0 85 7d d1 fb 6e 3f 3e dc 98 cd 8a 7e 82 3f
       0.003782185707844913 0.0090304225915202
000630 7a 56 82 a3 46 11 7e bf c7 c6 9c 57 7b c3 62 3f
       -0.007340694363070827 0.0022904786136671326
000640 8f c6 fd b1 b3 52 e7 be ae 46 97 80 59 70 46 bf
       -1.1121298996139075e-05 -0.0006847798369397828
000650 18 37 03 38 5d 1a 74 3f bb f6 45 90 f4 67 72 3f
       0.004907955299314336 0.004493670774875442
000660 14 a7 1c 2d 99 4e 80 bf 49 0b 5e f1 d2 33 73 3f
       -0.007962414445120504 0.004688095088456753
000670 7c 1c 36 fd bf d8 6b bf c2 7b 5d cb 70 00 83 bf
       -0.003399252871250589 -0.009278184133732274
000680 17 c9 7d f4 0c 57 5d 3f af 96 e5 d8 7a 15 7f 3f
       0.0017907740129570798 0.007588844177325234
000690 b7 f9 85 78 c2 1f 54 bf 0c 1b a4 ea e0 b6 3e 3f
       -0.0012282752159929863 0.00046866408469308017
0006a0 4d ab fb 77 a9 44 68 bf f3 75 1e 60 56 86 58 3f
       -0.002962428086779856 0.001496872283019865
0006b0 50 f5 85 e5 e3 92 80 3f 20 d5 a3 79 4a 5c 63 bf
       0.008092670862192591 -0.002363343676843002
0006c0 8d f4 0c ac 0c cb 54 3f ee fe 10 1b a8 02 4c 3f
       0.001269113898344973 0.0008548088864088457
0006d0 b3 36 7c 13 16 c5 6b 3f 3e db e3 fd 01 ba 30 3f
       0.003389876477632858 0.00025522755267053446
0006e0 60 1f c5 83 36 58 6d bf fe 3e 53 2d f6 1b 7c 3f
       -0.003582102274012941 0.0068626037875245665
0006f0 09 3b d3 b4 50 07 52 bf 31 9a 74 3d 96 b2 31 bf
       -0.001100376906197633 -0.00027004402132249904
000700 5e da f4 02 2c 69 44 bf 87 e9 5e 3e a9 25 47 bf
       -0.0006228890323772376 -0.0007063938507976688
000710 66 06 ab 18 8f 15 5e 3f a6 ba 86 da 18 74 75 3f
       0.0018361947465312055 0.00523767193264627
000720 03 be c4 65 65 c7 77 bf 54 14 c8 eb 1a 63 54 3f
       -0.005805393299211928 0.0012443316364863137
000730 05 af d4 00 d1 70 3b 3f f6 96 20 1d 48 cc 77 bf
       0.0004187116872624716 -0.005810052580306415
000740 db f3 35 55 d9 cb 65 3f b7 38 f7 5d 8e 3f 3e 3f
       0.0026606793196024387 0.0004615519119085631
000750 7d f4 94 54 3b 28 4f bf 0c 7e c4 d9 4f 58 57 bf
       -0.0009508409213264815 -0.0014248637954280578
000760 93 c1 f1 38 3a 49 5e bf 92 64 55 da 46 b1 50 bf
       -0.0018485134676461165 -0.001018828575374085
000770 3f f1 bf ef 4e e1 50 bf eb 6c 02 92 d0 8c 55 3f
       -0.0010302801956632716 0.0013153111285991125
000780 9c 67 a0 45 86 1e 81 bf eb 59 83 5d 1b 60 71 3f
       -0.00835900211318457 0.004242045303007628
000790 f2 43 8e ee 8d 3b 7e bf ff 8f 3b c1 87 5f 78 bf
       -0.007381014272042729 -0.0059504797861542605
0007a0 8c 93 44 0a 1d ca 76 3f 0c a9 c8 68 78 da 7d 3f
       0.005563844144749985 0.007288427685617781
0007b0 67 e7 1a 32 24 4f 64 bf 5f 23 35 ac cc b3 77 bf
       -0.002479143805285955 -0.005786704542807579
0007c0 db 7c a5 74 4f a6 7a bf 8f fe 0a 30 87 e6 3e bf
       -0.00650626218188607 -0.00047150421600503865
0007d0 b2 30 23 6c c1 df 80 3f 1b 7d 59 54 2e 22 6c bf
       0.008239279854386748 -0.003434267508779632
0007e0 7e be 69 83 e8 4e 7e bf ea 93 89 ff 68 fc 5b 3f
       -0.007399471526340682 0.0017081284878710475
0007f0 1d b0 e0 de f4 c3 56 3f c9 e2 eb 36 22 28 60 3f
       0.0013894931139573137 0.00197226221586919
