output_images/models/model-YCrCb-12.pkl_02.npy (npy, 63440 bytes, 1 tensors)

array (column-major) f8 [1, 7920]
00000000: acfe 6188 18df 793f 5d2d 26a8 72ee 983f
00000010: 4d7f 80b4 ac2f 853f f4d9 2b97 6c2e 60bf
00000020: 1ee9 6c10 f8d0 54bf 29d3 486f 463a 4b3f
00000030: be12 02c5 a5b1 70bf 7ada bbf9 5c35 74bf
00000040: 9bae 696c ea5f 66bf 582e 4516 432f 72bf
00000050: 94e9 5816 0fc2 58bf 5f45 5535 84b9 353f
00000060: 3a72 95be c385 54bf 8f80 94b6 91ea 813f
00000070: efd5 db52 d600 803f c958 9bd7 bafc 1cbf
00000080: b100 b21b fa5f 58bf 4328 0320 c915 623f
00000090: 0fcc 6cb5 44fa 75bf ed1f 70d9 f558 61bf
000000a0: d390 89e6 c6f1 53bf c5e8 a4c3 5eb0 6ebf
000000b0: 6766 310e 0e5a 79bf a090 5556 d65e 6dbf
000000c0: 30bc bf0d 6696 703f e437 71dc 3d6f 873f
000000d0: e296 26ef 8a75 673f 32da e98a 54e0 81bf
000000e0: ceed 0c21 34ed 7ebf 8c58 b80e dc92 7bbf
000000f0: 2642 31c0 c8d1 38bf 8f16 8636 5e00 72bf
00000100: bbba d9ba 687a 70bf 300b ee1f 92ce 79bf
00000110: 8dd7 4155 cec8 6a3f de4f 3e0a ef80 5bbf
00000120: 7a09 df2c 31b6 403f 05a6 21ee ec8e 813f
00000130: 666c d5aa 5e22 823f 710d 504d 4b5a 713f
00000140: a929 0d2b 198a 63bf 94ca 470c 6804 40bf
00000150: e35a 8921 0318 6bbf 24d2 ce2c db3b 69bf
00000160: 344f 6dbb 19fc 4f3f b9f1 5868 f25f 6ebf
00000170: afc6 82b1 0460 6bbf 0ab5 9cd1 6a79 56bf
00000180: a9fd b857 9611 763f 147f 568e 23e2 843f
00000190: 0cde d86d 3752 803f 18aa d6b5 ae06 59bf
000001a0: 9e6b b285 afe0 36bf 0823 14e4 74bf 5e3f
000001b0: f3cf 7d20 5705 79bf 2490 1e1d cbc6 66bf
000001c0: 2bd8 0e89 5c0b 183f dbf5 58c5 a5dc 6abf
000001d0: ddd0 3916 fea4 6bbf 41dc e27f 7cdc 52bf
000001e0: 676f 663f 5f23 8dbf efaa 06c1 966a 7d3f
000001f0: 68b1 f393 0216 78bf 5c72 ee31 e193 55bf
00000200: 43ed f5e1 e717 763f d895 9fa9 fd17 813f
00000210: a2c2 2f13 3106 6cbf 86b2 1bfe b1ea 61bf
00000220: 0380 c5d8 bd18 5abf cfcd 9b67 d2e5 413f
00000230: d182 da4b dbf8 78bf 4923 a6b8 e1ff 69bf
00000240: 06a9 92e7 55ab 703f e815 59e6 773f 823f
00000250: e518 5701 ea3f 813f e2fa d29d ffa3 633f
00000260: 98fd 8128 2bc5 5dbf ef01 29c4 ee5d 66bf
00000270: 6889 6db6 2807 6bbf f462 daa2 846a 62bf
00000280: 7b6a 38fe 5ed7 613f 495f bda8 2ad2 2a3f
00000290: 434e 0450 65c0 60bf 171b 2300 75a1 503f
000002a0: 99f1 1138 a2aa 85bf e8d1 741b 0624 663f
000002b0: 6f7a 9635 fc95 7e3f 2af1 c4d0 7ac2 393f
000002c0: 56ef 8223 2d46 403f 44d2 b49c 3db8 6a3f
000002d0: dd66 194b b437 6abf 7cce a7e9 a275 71bf
000002e0: 7e1c d89c c82f 72bf 0f33 f1f3 de89 7ebf
000002f0: cb07 cc39 0ff7 4dbf 4d52 635f a4df 63bf
00000300: 36ad 3362 770f 85bf 8fa0 7de4 d51d 883f
00000310: 32b3 1690 dbca 73bf d61e d82a 0c40 5fbf
00000320: bfe7 865c ff4d 693f 9ef0 86ff d07a 7e3f
00000330: 704f 1420 cc0f 6cbf b01f f167 24a5 5cbf
00000340: e0bf 9a3c ba8b 52bf 800b 5585 f295 4f3f
00000350: f04c ecaf d7df 6ebf 853a 4c6d f614 43bf
00000360: c5da 5eb7 b0fe 64bf 7378 1a60 e5b0 3bbf
00000370: bc2e 8519 1bc3 64bf 2cfb 47b3 ff16 69bf
00000380: 6dc8 34bb 86e9 4f3f 6071 ecae 05f9 853f
00000390: 95a6 f36e ac13 703f 8933 47ff 1e3e 553f
000003a0: 357f d4c9 8d75 51bf de46 e879 2f45 75bf
000003b0: b1dc f44b 0879 46bf 6e19 c0a9 d6c3 733f
000003c0: cbb7 94e6 9479 78bf 2b4a dbce 1816 7c3f
000003d0: af0c 7c68 f9ad 743f b4bf ccad ccae 66bf
000003e0: 9304 8f3e c6e2 203f 9f42 88d2 8f41 5d3f
000003f0: bb6d 0955 e830 71bf b03a 1bb7 3066 71bf
00000400: 58ab c1fe f0fc 61bf 4a1b fc2c 1136 73bf
00000410: 5d5c ea38 19eb 543f bfb6 e7bf 976f 4bbf
00000420: 49f6 e311 5477 6ebf 3cd8 f160 cd90 553f
00000430: 42dc dde6 3de5 5fbf b06b 3301 8eff 703f
00000440: afb9 41de a8fe 603f 853e d288 3f6c 50bf
00000450: 8deb 46c3 1845 71bf 40f4 9251 5197 6bbf
00000460: 800f 21b5 b809 63bf ef07 4ce6 5cbc 6abf
00000470: a897 fe3e b2c4 69bf df19 a839 224a 73bf
00000480: b890 6d4a ed2c 66bf 6883 7406 06e5 473f
00000490: dd37 4b24 ab53 73bf c73d bd68 c982 70bf
000004a0: 5112 c25f c1b2 51bf 2765 7104 559b 833f
000004b0: ccc9 1719 0d9c 6a3f 9ff4 66d8 9469 303f
000004c0: 3885 09d4 c61f 49bf b992 697b bf70 7dbf
000004d0: 74d1 9449 ed03 61bf edef 9b52 8a66 693f
000004e0: 21a3 6cbc 8f0d 5ebf 6595 5bc0 5c06 303f
000004f0: 3445 aaff 1774 77bf 6c5f cba5 cc9d 61bf
00000500: 166b 06d5 e26e 703f 4a50 d3c0 bc1b 803f
00000510: ac1d 5857 b6a3 7f3f 3e00 2654 9c0c 45bf
00000520: 01aa ee66 6473 5d3f ba29 ecea f373 54bf
00000530: 7188 4c7b 208f 61bf b090 8fc3 52e9 7d3f
00000540: 7107 bcc0 e731 68bf d3fa 2db6 eb10 4c3f
00000550: 084f 4e9b 1ccd 67bf eb3c 3214 05b3 4f3f
00000560: 2bde 2d44 8c95 3e3f 9c4a bd80 f997 56bf
00000570: 1f02 0fc3 0031 6bbf 8681 1b49 0485 73bf
00000580: 3ed7 51c5 e0b9 69bf 9527 2cf6 73e0 6fbf
00000590: aa14 a5e2 fdfc 6fbf f011 4cba b116 79bf
000005a0: acaa a297 ff6e 6ebf 6e09 232d 9060 52bf
000005b0: 1d2f f76c 28dd 2ebf 7818 1657 11b2 68bf
000005c0: 3f79 f8f4 cfca 64bf 4995 db37 7dec 5abf
000005d0: 37ab 54a9 6f91 d7be 2fd6 d330 12c2 7abf
000005e0: 5cbf 7f9e 30a5 6dbf 4f6e d62d afac 70bf
000005f0: cbe0 37c1 76a9 68bf cb5e 7c12 0d42 5fbf
00000600: d5e6 7ff2 7a59 6fbf 357e 99a8 5535 363f
00000610: 8ba2 574b 7e49 76bf b999 6cc2 cc44 54bf
00000620: 65f3 60fd 0170 6d3f 7724 9818 381d 7b3f
00000630: 45db eadd aebe 7b3f 653c f525 096a 073f
00000640: 5c66 37e3 4ad0 3c3f e037 0fa6 ea7f 57bf
00000650: bf8f 0e5a 1f32 6dbf 8318 b812 6526 723f
00000660: 22be bd21 0f76 80bf f843 962a bf53 25bf
00000670: 4248 95bb 00ce 50bf 421e 6de5 8ab7 53bf
00000680: c57e 158b 4914 65bf f035 4b00 3ee0 6b3f
00000690: c8a5 a391 7f82 7e3f 7db1 edec 490d 633f
000006a0: 43ab 4152 c7fc 563f 17e7 d242 1c3b 3c3f
000006b0: 5c3a 1c25 5a4c 7a3f 1309 58df 6fed 773f
000006c0: 022c 6560 969a 74bf e60f 996f 40f4 72bf
000006d0: d1a6 c9bd a69c 65bf 435a 3b49 41f7 79bf
000006e0: 635b f612 e633 75bf b21b 14c2 0f3e 5abf
000006f0: d054 9008 9803 1fbf 032e bae1 c287 79bf
00000700: ed21 e4dd 0672 69bf 9803 54f4 7d1d 6cbf
00000710: 674b 6007 e0ac 60bf ab47 6f2f c56e 67bf
00000720: c1c9 09c9 6327 7abf 7432 b756 ee7e 4c3f
00000730: 7c83 feaa 7387 513f 192e 4665 9168 68bf
00000740: aaa2 9acd 54d1 7bbf 016c e9eb e1e8 49bf
00000750: 5275 d4e2 f2fd 59bf cb24 0d39 602f 68bf
00000760: 9ef8 af78 475f 453f 7c56 3da2 3d2a 703f
00000770: b738 dbbb bfb3 643f 7dd3 e438 740d 623f
00000780: 05b4 3a03 d51c 83bf e909 6648 ef36 50bf
00000790: 1c73 a2af 1ef4 00bf 593c 153b 38f0 42bf
000007a0: f48c b5c2 5367 5bbf f467 1971 44bf 6c3f
000007b0: 9ec3 9a15 386c 7a3f df91 71a5 41a4 703f
000007c0: 29a2 ff71 c9d2 653f 9cbe 12d5 9235 633f
000007d0: a095 e4da e113 7e3f 3557 5b8a 4ceb 723f
000007e0: 5575 d38b 72d6 65bf cb8a 40ec 2f04 7fbf
000007f0: cccd 8453 4572 81bf af44 0da1 2540 6dbf
0.006316276389156588 0.024347106469162372 0.010344838388902789 -0.0019752617748693916 -0.0012705252172070035 0.0008309215468843323 -0.004075667893748301 -0.0049337035995821125
-0.002731283052801304 -0.004439603861395712 -0.0015111110054833775 0.00033149221174707215 -0.0012525950972622894 0.008748186478044566 0.007814096835754262 -0.00011057749170659543
-0.0014877264464133006 0.0022076538299176398 -0.005365627663922914 -0.002117614912553015 -0.0012173120868733025 -0.0037462092269865154 -0.00618939867407562 -0.003585260989597286
0.004049681327145158 0.011442645349372733 0.0028636659200910056 -0.008728657235434676 -0.007550433759031928 -0.006731853103266638 -0.0003787150491847711 -0.004394882220713505
-0.004022988415825319 -0.006300516891203853 0.003269579881869106 -0.0016786894202356277 0.0005100002397216274 0.00857339002341729 0.008854617680006348 0.004236501835296878
-0.002385186344701047 -0.000488806538270064 -0.0033073483612427886 -0.0030802994501420034 0.0009760976453016879 -0.0037078604243829497 -0.003341683546829475 -0.001371721568328712
0.005387866283455813 0.010196950703913944 0.007969315566795941 -0.0015274721293773216 -0.0003490856667639988 0.0018767014992723836 -0.006108608569650886 -0.0027803389611609376
9.172203341631438e-05 -0.0032790410721463665 -0.0033745730050275106 -0.0011512008491487843 -0.014227623102491994 0.007181729204982486 -0.005880365438525416 -0.0013169955416067114
0.005393892089496535 0.008346540202135808 -0.0034209211821621547 -0.0021871067445913854 -0.0015928129169751066 0.0005461957327654257 -0.006096703172858668 -0.003173771726498496
0.004069648327609926 0.008910118786967083 0.008422687688732508 0.0023975365171219213 -0.001817028185570146 -0.0027303374675116047 -0.0032993121307508984 -0.002248057417841282
0.002177892239854371 0.0002046277116913803 -0.002044866443734057 0.0010150568564754653 -0.0105793641434893 0.002702724388337286 0.007467255776104949 0.0003930616228620282
0.0004966469196214611 0.0032616809236521178 -0.0032003899912468174 -0.00426257741718283 -0.004440101283314067 -0.0074557026956199165 -0.0009144615501954721 -0.0024259767916226306
-0.010283405956633556 0.011775656733974208 -0.004832132022255563 -0.0019073599645497616 0.003088949921417033 0.007441345595392472 -0.003425501520391387 -0.001748357346302836
-0.001131946441471847 0.0009639200385794661 -0.003768845809995029 -0.000582332921654175 -0.0025628520479260308 -0.000422531127790899 -0.002534439972952855 -0.0030627245089357626
0.0009738834254788949 0.010728878403420239 0.003925012176503669 0.0012965491015279626 -0.0010656246807414064 -0.0051929335154612104 -0.000685814906239998 0.004825438049016346
-0.005975324290643467 0.006857010752087815 0.005048727274473182 -0.002768897784697766 0.0001288287160417274 0.0017856506839316955 -0.004197032496985493 -0.004247846883756054
-0.00219580716480065 -0.004690234272635882 0.001276754981210513 -0.0008372775044429222 -0.003719009589189058 0.001316261830451206 -0.0019467453489292606 0.004149965959380816
0.002074556179699281 -0.0010023708776180373 -0.004216286401454006 -0.003368052316175013 -0.002323971516519252 -0.0032636465497270987 -0.003145549904689699 -0.004709371273298817
-0.002706969698396202 0.000729206029891666 -0.0047184643960473645 -0.004030977968639111 -0.0010802162569528882 0.009573616216743531 0.003248239118641671 0.00025043376845330397
-0.0007667275277293611 -0.007187602974771217 -0.00207706780624955 0.003100652848727839 -0.0018342879936403338 0.00024451984823622145 -0.00572594999779712 -0.002150439932261541
0.004011999190334922 0.007865404734197185 0.007724487562433973 -0.0006423724483255522 0.0017975311745696 -0.0012483484276254301 -0.0021434435278858068 0.007302592560311336
-0.002953484194109395 0.0008565092979181073 -0.002905422088994917 0.0009673857497477766 0.0004666774222452398 -0.0013790070106166957 -0.003319264877490249 -0.004765526524096569
-0.003140391354970711 -0.0038912072062701844 -0.00390481554964824 -0.0061251585473240805 -0.0037150375402082627 -0.0011216552707514443 -0.0002354728553498547 -0.003014596812764
-0.002538114705898625 -0.0016432974656990942 -5.619075314637279e-06 -0.0065327368331416355 -0.003618807753802784 -0.004070934575249276 -0.003010494177711908 -0.0019078376444151997
-0.0038268472017052115 0.00033887234949323285 -0.005441182458050374 -0.001237106285495322 0.003593448530436682 0.006619662404326757 0.006773646424952433 4.4659046347755156e-05
0.0004396612959830287 -0.001434306286899105 -0.0035639393176598306 0.004431147400742688 -0.008037679879378482 -0.00016271313260721155 -0.0010256774097183873 -0.0012034279258886925
-0.002573150290728995 0.003402825447074369 0.007448671642330713 0.0023256725175341817 0.001403040551873417 0.00043076934782569756 0.006420471314199174 0.005841671945292742
-0.005030238541006151 -0.00462746782574539 -0.002638173739161733 -0.006339316390685359 -0.005176447607843612 -0.0016017106902965592 -0.00011830916822959674 -0.006232987648796764
-0.0031061300388766006 -0.003432031635953025 -0.002035558277392924 -0.0028604365611295166 -0.0063852212775707415 0.00086962354310456 0.0010698918885980449 -0.00297954938486612
-0.006791430723446604 -0.0007907012112114976 -0.0015864250120281764 -0.002952278075473024 0.0006522273046128018 0.003946533924894188 0.0025271172333765873 0.0022036809888512075
-0.009332336579371167 -0.0009896599527513489 -3.233641287290185e-05 -0.0005779528202455405 -0.0016725843405190318 0.003509172129992239 0.006450862006816131 0.004062897139281734
0.0026639875868464014 0.002344881803388278 0.007343179937639915 0.004618929849774568 -0.0026657330732705966 -0.007572352598830444 -0.008518735514917795 -0.003570626730301805
