output_images/models/model-HLS-12-FULL.pkl_02.npy (npy, 63440 bytes, 1 tensors)

array (column-major) f8 [1, 7920]
0	0xbf6eec5221764cfb	-0.003774795924707084
1	0x3f7b13194126edc2	0.006610010767356513
2	0x3f710cd5daad18e7	0.004162631385787408
3	0x3f53821f5e4c94f1	0.001190691598091317
4	0x3f3aa3bf9eb7b193	0.0004064886877291004
5	0x3f6d93ec74f197b7	0.003610574559888637
6	0xbf80c56a4cc723ac	-0.008189039676737973
7	0xbf53b4f191518a2c	-0.00120280829039444
8	0x3f7aa3641967ba94	0.0065034780622982465
9	0xbf71c2f5c6b4ebe5	-0.004336319030069345
10	0x3f727ecc4b9d8566	0.004515455273435753
11	0x3f6499bf5ffe18b7	0.0025147187988664127
12	0xbf796204a1d2d3e9	-0.00619699296401153
13	0x3f6465b730966bef	0.00248990802056203
14	0x3f79cce03c8d9491	0.006298900531736555
15	0xbf7002efc0ba9551	-0.0039090504975878996
16	0x3f7746ea2070ae84	0.005682863767144778
17	0x3f853f4978664c11	0.010374616610340255
18	0x3f6309ae8ab5f777	0.0023239525814337486
19	0x3f6839e2bc3c0fb2	0.002957289545408381
20	0xbf6680ae69aece8c	-0.0027469069004498244
21	0xbf833f1d62844f53	-0.009397725647921773
22	0xbf703f63c07678c3	-0.003966703086375203
23	0xbf74b5b475fe114f	-0.005056099820539408
24	0xbf5b5c99ae3fd778	-0.0016700268542968171
25	0x3f524e5987c12840	0.001117312843251131
26	0x3f6b76d5384b5dc6	0.0033525623751804205
27	0xbf61ef0319d98996	-0.002189165169327721
28	0xbf46d48bf707fdb6	-0.000696724264400864
29	0x3f86179e025fa409	0.010787233779369758
30	0xbf73a081f974034a	-0.00479174395809496
31	0x3f5debce2811cc2a	0.0018262398955613082
32	0x3f8a1fb590e7f55f	0.012755793080027443
33	0x3f103edb08429a86	6.19717775999039e-05
34	0x3f639a851258d90f	0.002393016725160575
35	0x3f70849149652847	0.004032676244898842
36	0xbf6d29e0e34d1f3a	-0.0035600082723340728
37	0xbf6ee894d3e0c965	-0.00377301280880109
38	0x3f6352eef0e2ee1c	0.0023588816466977424
39	0x3f763065c521a4d1	0.005417249240147374
40	0x3f6767deb1f6ff6f	0.002857146216882648
41	0x3f783c1aa993b915	0.005916694784202888
42	0xbf778f04f86c88e0	-0.005751628318451746
43	0xbf6c0f940f9dfe00	-0.0034253970924849053
44	0x3f6e1475bc8fedc0	0.003671865419617254
45	0xbf639987619d299d	-0.0023925441900349413
46	0xbf685873f6318a82	-0.002971865165407651
47	0xbf50e2582df7c8e6	-0.0010305272224937988
48	0xbf54a8cb0a69f162	-0.0012609465426570367
49	0x3f5e4261a29cf044	0.0018468812435932383
50	0x3f7da509979dd779	0.007237470121131178
51	0xbf5d75d13916c33c	-0.001798109359111246
52	0x3f683d3220134e15	0.002958867932287177
53	0x3f79f005b4a9ef82	0.006332418716393453
54	0xbf5ce26a7548dbae	-0.001762966120748759
55	0xbf69271a4cce82d4	-0.0030704034492859775
56	0xbf774fe375639064	-0.005691421995127486
57	0xbf6cc274a0830b14	-0.003510692393406409
58	0xbf4dad376ec69154	-0.0009056587855878298
59	0xbf61582a14d52bab	-0.002117235365095967
60	0xbf38a82a815bb998	-0.0003762344143599882
61	0x3f64380a3fd1a16e	0.0024681282216542566
62	0xbf5af5ad983013c3	-0.001645488286841288
63	0xbef2f798aedde32d	-1.8088506230171088e-05
64	0x3f7ac54d281a9016	0.006535817521271544
65	0x3f54af6b1960bfe4	0.0012625261201826216
66	0xbf6855df210f0234	-0.0029706342688487156
67	0x3f64cf6f2ad447df	0.002540318606983213
68	0x3f802e9295e4a4bb	0.007901330184341018
69	0xbf657b3988f1dfb1	-0.0026222347001371928
70	0x3f57378fef67e3d3	0.0014170556656820557
71	0xbf5decca1e3bb73e	-0.0018264745530660177
72	0xbf721e7664519082	-0.004423582523575333
73	0x3f1ff32d228d122c	0.00012187922460522226
74	0x3f6a1af827616624	0.003186688113640883
75	0x3f7512012c5c3655	0.00514412363351154
76	0x3f75e98cff65060a	0.00534968449784535
77	0x3f76b059c4944886	0.005539274841128377
78	0xbf76462b3dc3ce84	-0.005438012038428423
79	0xbf1b9eb967b3aec7	-0.00010536200163685081
80	0x3f86068a7a6c3b36	0.01075466333489104
81	0x3f4c6aae1e42eb44	0.0008672094523015446
82	0xbf54ecb18d0fe78a	-0.0012771352669447033
83	0x3f28ae038928f7af	0.00018829148446458446
84	0xbf68d43a0b2ffcfb	-0.0030308850923571585
85	0x3f71b693438536cc	0.004324507950810474
86	0x3f4f26642ef326a0	0.0009506215264078639
87	0xbf77a83888ebbfc4	-0.005775662268874219
88	0x3f554fbc5d990830	0.0013007487781497955
89	0x3f5a14b7479b1362	0.0015918531266134396
90	0xbf7a685084a90d8b	-0.006447138332592482
91	0xbf6223896b19d3ff	-0.0022142108871840978
92	0x3f7509c53c71058c	0.005136270955575905
93	0xbf6b071b377b7733	-0.003299286992713224
94	0x3f62df5b1df9f655	0.0023037700300950017
95	0x3f7b7a894c16316b	0.006708656613579537
96	0xbf7403ecacf70582	-0.0048865552084306225
97	0xbf66450bbd81087b	-0.0027184705068359883
98	0xbf66af6b96ca08ab	-0.0027691937778523044
99	0xbf74825c4c134571	-0.005007133994881272
100	0x3f64f5aaaac17dea	0.0025585492458472985
101	0x3f6ad414e7401983	0.0032749565380100778
102	0xbf57fb8ceb1d4d50	-0.0014637828976063645
103	0xbf4009d780be937b	-0.0004894544849674965
104	0x3f7ff9136234eb6e	0.007805896489396653
105	0xbf7081b1be756cc3	-0.004029936134737957
106	0xbf6446d5704384d1	-0.002475182411317258
107	0xbf7b5833e54897e2	-0.00667591354116401
108	0x3f70e1ac4d0521df	0.004121468591911952
109	0xbf7528f9370d4072	-0.005166028496049179
110	0x3f779d66e8396d69	0.005765344601594926
111	0xbf76cba55cf17926	-0.00556530566163208
112	0x3f735cb4dbe0835b	0.004727083663994626
113	0x3f7d91610b376107	0.007218722417256857
114	0xbf65316b19869ba8	-0.0025870410720076516
115	0x3f88167c40a538db	0.01176163742334462
116	0x3f80e93935367f7a	0.008257338463238052
117	0x3f5997ea97e0d24c	0.001562098593706501
118	0x3f6a94ff4ad6ca33	0.0032448755434526743
119	0xbf3ae79b037a01a3	-0.00041053328047981947
120	0xbf7103e1ae304346	-0.004154092373043044
121	0x3f74bab7c17333bb	0.0050608804660443
122	0x3f62a35b8c5416f6	0.002275160603519728
123	0xbf76809c0f929267	-0.0054937454343969355
124	0x3f7bdb2a439207ad	0.006800808995764668
125	0x3f6c8796b9340aa1	0.003482622510661074
126	0xbf7a5ced6c202a36	-0.006436278754345317
127	0x3f6f4c60c5501cb2	0.0038205995610983362
128	0x3f73c3ed59fed08f	0.004825522570104947
129	0x3f5cab7b988896ff	0.0017498690596168818
130	0x3f6f0b6a2e419361	0.0037896226731838766
131	0x3f583acf7276c092	0.0014788652277779907
132	0xbf74270422ca3f8c	-0.004920021205762636
133	0xbf4436d18f0ea9b3	-0.0006168864475644603
134	0xbf614e1d7c88ba6a	-0.002112443533653964
135	0xbf801f39b1a059a7	-0.00787205766031891
136	0x3f72f547f4773d1c	0.004628449510575974
137	0x3f74e959cc3fb5b0	0.005105353138771404
138	0xbf60f67b521ea985	-0.0020706566437713203
139	0xbf6022add501edb5	-0.0019696612508235075
140	0x3f2209436b4c552c	0.00013760517108411233
141	0xbf5aa14bdccb1e28	-0.0016253701061702628
142	0xbf50f1f090197b7b	-0.0010342454192124584
143	0x3f5e6fc52c8ffebd	0.0018577027824448332
144	0x3f5ad75e5843cd0e	0.001638261922434495
145	0xbf72ba9a1676f57d	-0.004572488694461693
146	0x3f7d6dd088450d84	0.007184805468856029
147	0xbf39d06a63264242	-0.00039389226289990667
148	0x3f80019e95148bc6	0.007815588879173673
149	0x3f77e50ed192eac8	0.0058336809972227635
150	0xbf76c907b3d7b7ca	-0.005562810981684716
151	0x3f804f71b4db90fe	0.007964027721250929
152	0x3f74e6bccdc19b58	0.005102860941497443
153	0xbf55cce57374e37c	-0.0013305893642849556
154	0xbf54de49df6a726b	-0.0012737008488904699
155	0xbf7790e6c361c087	-0.005753423136511177
156	0x3f4b80896693a9d6	0.000839297380619992
157	0xbf6977585bba5727	-0.003108666014507561
158	0xbf79b095dff0662d	-0.006271920631684175
159	0x3f4986fdaab07b50	0.00077903162071267
160	0x3f70228e9e90d03c	0.00393920622541449
161	0x3f8648e3773f2aba	0.010881211353895071
162	0xbf67ed567d1cc006	-0.002920788691788803
163	0x3f7be13b13e53141	0.006806593677833484
164	0xbf43cad02c60f8ff	-0.0006040111991365836
165	0xbf7549afe096ae5b	-0.005197226544094126
166	0x3f5ef1f668d186bd	0.001888743051744176
167	0x3f05e93349f0c766	4.179179926956551e-05
168	0xbf690576a49ea33e	-0.0030543629881844272
169	0xbf25a7bc3a2dfc73	-0.0001652161855325327
170	0xbf57d306183e7a3d	-0.0014541205900752273
171	0xbf669b88fd735c96	-0.002759711798357832
172	0x3f704d9d52bfcb59	0.003980268997099434
173	0x3f5dea3657e1267b	0.0018258600898825295
174	0xbf65aab41ec6a0c6	-0.002644874379445469
175	0xbf724a5e8036dc7e	-0.004465455192465771
176	0xbf43a116857dae79	-0.0005990371673596082
177	0xbf537b93ad5bb6c4	-0.0011891309890716276
178	0xbf6352a887e4f26d	-0.0023587504976190694
179	0x3f6a95fb1d2db25c	0.003245344597806272
180	0x3f6598c88abd5f9a	0.002636329349041189
181	0xbf308a9cd0404490	-0.00025240257696263705
182	0xbf4a0e53fb2cb73f	-0.0007951650680746227
183	0xbf76fb63bfd19cc0	-0.005610837598488405
184	0xbf8124f405d112c7	-0.00837126391173494
185	0x3f77e38ebcbabb9c	0.005832250182421197
186	0xbf6318c395831a17	-0.0023311443329448
187	0x3f702d5a3642950f	0.0039495014099533285
188	0xbf58f50a5a528ce5	-0.001523265943696833
189	0xbf669934fd1051c9	-0.002758601659033942
190	0xbf619887910d33b6	-0.0021479270730310985
191	0xbf337ee007f4abaa	-0.00029747933872908505
192	0x3f26408e8df7c240	0.00016977062385549642
193	0x3f5537a99c9f398d	0.0012950092664031105
194	0xbf6a2cfb7e548cf3	-0.003195277403067126
195	0x3f68c261a402ec7a	0.003022375778611028
196	0x3f71edfa6dd4a053	0.0043773443588080605
197	0x3f84eb1d611675c4	0.010214070821173211
198	0xbf7317c2f445931c	-0.004661332645217422
199	0x3f5c1357da94fa71	0.00171359614826341
200	0xbf58dd753f874a5d	-0.0015176434518379335
201	0xbf407be0f1b38b8e	-0.0005030487403952942
202	0x3f7757af72bddc6f	0.005698857636040263
203	0x3f7521d74c4d51aa	0.005159226425196209
204	0xbf8623ce41a1a367	-0.01081048143187653
205	0x3f72fec8e2e0e8a2	0.004637512885944302
206	0xbf7289ff21bc8c99	-0.004526135071304748
207	0xbf7981141c67ce7e	-0.0062266145309767245
208	0x3f5f21a335014200	0.0019001096552707653
209	0x3f80de67ad5667da	0.008236703851071715
210	0xbf5ad4a8f041f209	-0.0016376161375141216
211	0xbf5c867129150ba8	-0.001741037853506747
212	0xbf7213810ea184be	-0.004413131837368299
213	0x3f4e2e037a8f4953	0.0009210125909880164
214	0x3f7c0f1cabe93bca	0.006850349424509747
215	0xbf7566a3dc713ccb	-0.005224838335450242
216	0x3f66c9ea0c93f33b	0.002781827094280235
217	0x3f628e1a16e1be1e	0.002265025096725783
218	0x3f61092c0b2754f8	0.002079568884463808
219	0x3f195bc0718d5d2e	9.673463899894229e-05
220	0xbf7384010d46840b	-0.00476456080323918
221	0x3f7f7454579ac2df	0.007679299794901977
222	0xbf57913588ef4e4a	-0.0014384291459820391
223	0x3f6d4898d37961d2	0.0035746559986302518
224	0xbf654a8340809ad5	-0.0025990069880380364
225	0xbf5478d808dfffa9	-0.0012495145524553475
226	0x3f42bf98e55d0b30	0.0005721565782795587
227	0x3f7918d4aa22ee00	0.006127196045948136
228	0xbf79f7f0a43da4af	-0.006339969640842088
229	0x3f720fcb1996ec06	0.004409592971053483
230	0x3f4af002da25696e	0.0008220685888702792
231	0xbf745ab72e155c67	-0.004969325587203511
232	0x3f58d032b2c64602	0.0015144820309597189
233	0x3f4a67defaca6020	0.000805839421064828
234	0xbf4df9e1da1839e6	-0.000914798049224616
235	0xbf701405c725f2c1	-0.0039253450107678564
236	0xbf0eba37611dce53	-5.8607878726937714e-05
237	0xbf33e1d8ea467a30	-0.000303378541753138
238	0xbf5ecf942ca4e6fb	-0.0018805453315295362
239	0x3f6328815ee61c91	0.002338650395532556
240	0xbf845afbe947aa76	-0.009939163262022915
241	0x3f6786df7ea83d69	0.0028719296581198217
242	0xbf82e68df3879e16	-0.00922881030505977
243	0xbf6963ed522e6d63	-0.0030994067360105445
244	0x3f7f42f0f65cc997	0.007632199534599946
245	0x3f82a71959a2b064	0.009107778594931122
246	0xbf5728775f325140	-0.0014134565106234814
247	0xbf776cb2b4490020	-0.00571889692633934
248	0xbf7eee400c544100	-0.007551431835296052
249	0xbf554cf7583902ce	-0.0013000884508899582
250	0x3f7d8213a8533452	0.007204129016099863
251	0xbf7c66fb0b7c9830	-0.006934147495291795
252	0xbf80ab62bf84b42f	-0.008139392347027733
253	0xbf63505f0bad32eb	-0.0023576599464035695
254	0x3f27b4aabd38b8da	0.0001808603689012537
255	0x3f3e7385bbedfd4c	0.00046464934342079346
