output_images/models/model-HSV-12.pkl_02.npy (npy, 63440 bytes, 1 tensors)

array (column-major) f8 [1, 7920]
0	0x3f31e2d9b4815e1f	0.00027292075220006375
1	0x3f673a509e51ace1	0.0028354239062103746
2	0x3f64dc2f13b886f2	0.0025463981126144725
3	0xbf31fb9ad099aa6d	-0.00027439622554107404
4	0xbf7454a0c7b5ed25	-0.004963520095198325
5	0x3f3852ccd4e2b68d	0.0003711462094412109
6	0xbf49052ea108a123	-0.0007635572129105799
7	0xbf6ebfd97c5a7745	-0.0037535903710041196
8	0x3f61d8d78a1af48b	0.0021785936122272246
9	0xbf61746051ce3a9f	-0.002130687831999836
10	0xbf559b86b832b086	-0.001318818628344183
11	0x3f42fd384266f0ed	0.0005795025543231781
12	0xbf75c29ca2fda765	-0.005312549459498194
13	0x3f50c735ea4ff742	0.0010240580097610895
14	0x3f7447011b4a7cbd	0.004950527498890964
15	0xbf679c9279b13373	-0.002882276615798701
16	0x3f5be8788ecc95f8	0.0017033746073108463
17	0x3f6140d03d6c8366	0.0021061007677335873
18	0x3f6b6a7f5b2d4563	0.003346680395602307
19	0xbf714420525ac0e9	-0.004215360886220967
20	0xbf6ee811ea2a8b7f	-0.0037727689644539426
21	0xbf724a4b2fb7717a	-0.004465383240554005
22	0xbf7c01c1cbdee3ea	-0.006837613122052647
23	0xbf83a3ed3cc828a7	-0.009590009133735157
24	0x3f51649011f16749	0.00106157368988709
25	0x3f6efbdebdd3d6d8	0.003782210390108936
26	0x3f54ddb7c23e4ed9	0.0012735647696659384
27	0xbf39817495f2a344	-0.0003891858704699223
28	0x3f48c169773b1849	0.0007554783791981014
29	0x3f6e11cbee360ba8	0.0036705954568687256
30	0xbf632c2c3f84eeca	-0.00234039919101101
31	0xbf72d3497785524e	-0.004596030216209869
32	0x3f6cbfb2e517e8b8	0.00350937786492719
33	0xbf64f84511871beb	-0.0025597905152809817
34	0xbf4a2f4c30735cee	-0.0007990953462479169
35	0x3f6556f7a6d79ce9	0.002604945845394381
36	0x3f419a0aa2ebee16	0.0005371620116813604
37	0xbf4ab68d2874e513	-0.0008152188537799164
38	0x3f6f333d54c26b31	0.0038086126206286143
39	0x3f7661f1f898bdf0	0.0054645015712106865
40	0x3f465f06837a272b	0.0006827146343806092
41	0x3f63d690a067ac33	0.0024216484773567303
42	0x3f0adb1281279b17	5.122328015599012e-05
43	0x3f300e850fd9f91f	0.0002450060709192781
44	0x3f578f370a4b2d05	0.0014379537107512285
45	0x3f71fa1a1013b510	0.004388906295600195
46	0xbf48abd4a249a14f	-0.0007529056789055496
47	0xbf57bb239ba0391e	-0.0014484260304957262
48	0xbf5e43b329fd7a09	-0.0018471955917999125
49	0x3f490343ae3a6ba7	0.0007633285972191609
50	0x3f6f0e3156562da0	0.0037909473055088433
51	0xbf5990db35c51007	-0.0015604153368977706
52	0x3f4413000d4aecd3	0.0006126165631807019
53	0x3f553008816a5169	0.0012931902944376078
54	0x3f5c5f0f436e427c	0.0017316483551647324
55	0xbf75d126eb8e0b6b	-0.005326416045934627
56	0xbf69058cf307c785	-0.0030544045368907113
57	0xbf6e0ec2c3b50351	-0.003669147872330227
58	0xbf792d89d5c7463e	-0.006146944444894551
59	0xbf7af4b4a6a25380	-0.006581025760301951
60	0x3f48609dab6387ab	0.0007439393873733732
61	0x3f2d784bcb6e8d3b	0.00022483754375200192
62	0xbf537baeb904db93	-0.0011891561772025868
63	0xbf38d2a4e5819fae	-0.00037876630586319404
64	0x3f6f44227a418c75	0.0038166688337227203
65	0xbf5a3a70e6db51e1	-0.0016008474880680956
66	0xbf5da1542f16b18c	-0.0018084833248891178
67	0x3f448eab2050e239	0.0006273589684787146
68	0x3f6d4f0026d77320	0.003577709480607885
69	0xbf5d064608a0248c	-0.0017715152666844284
70	0x3f1b3a84b3209b8a	0.00010386881766120799
71	0xbf6b3b893ef9d23e	-0.0033242874704291483
72	0x3f10cb346e448358	6.40631438426747e-05
73	0xbf405b77e516b67a	-0.0004991851257522683
74	0x3f67ea0b35e1a3cd	0.0029192179636549965
75	0x3f73e0378312a323	0.0048525017202017155
76	0x3f471b685f13ab7f	0.0007051715494105075
77	0x3f63719a5c69948c	0.0023735060561188067
78	0xbf33f4767edec702	-0.0003044881149164431
79	0x3f3de565e7698f53	0.00045617807282937356
80	0x3f6e9fb3cc21a312	0.0037382613818873834
81	0x3f72ab7435b4851e	0.004558042473292971
82	0xbf4a7124f49eecce	-0.000806944889738226
83	0xbf61b359ac677ccd	-0.0021607161936426423
84	0xbf540546aaea4a79	-0.0012219610322616022
85	0x3f7094b9cc70f235	0.004048085952544291
86	0x3f72f799d3458b0a	0.00463066184997519
87	0xbf5fcd44dd6ad6d0	-0.0019410297879124856
88	0x3f6218cf36cc9431	0.0022090956830589582
89	0x3f4b7f20cea79a88	0.0008391294662118557
90	0x3f52d60fdc145683	0.0011496691589107106
91	0xbf6e18ea3402763d	-0.0036739897041815615
92	0xbf5434084094f629	-0.001233108576641393
93	0xbf6809ea412afa7e	-0.002934415367547515
94	0xbf669ce7df8076e7	-0.0027603653688988874
95	0x3f5d8eac08013d48	0.0018040351860866988
96	0xbf39457e5f47d97c	-0.0003856118703703599
97	0xbf5611c8f32c0e49	-0.0013470137025145704
98	0xbf62416bd581d4fe	-0.00222846089678319
99	0xbf61542db12cc37d	-0.0021153347419375344
100	0x3f60ae36874ef695	0.0020361962328639496
101	0xbf4c267d8fac067c	-0.0008590806095016413
102	0xbf56038c3bc1e941	-0.0013436192957941436
103	0xbf52ae199ef9dd9d	-0.0011401415066794936
104	0x3f7028d7c6ca7f98	0.003945200802860337
105	0xbf67fc0b69fcc90a	-0.002927801411623969
106	0xbf2066a7e3d7e9c6	-0.00012512969435347752
107	0xbf76796bad86c80c	-0.005486889473489864
108	0x3f619365f97a2190	0.0021454803171005524
109	0xbf76504da57a7d3a	-0.005447676950694197
110	0x3f61c659414bb0c2	0.0021697753203309975
111	0x3f5bf3f963e8c955	0.0017061171962607553
112	0x3f6859a20b1140fe	0.002972427836120172
113	0x3f7a46bc55bd8fe3	0.006415115054412698
114	0x3f6165751e3ae18a	0.002123574014913203
115	0x3f747bd8059392dd	0.0050009191847706054
116	0x3f170238f512763b	8.777115478372174e-05
117	0xbf407ad09199511e	-0.0005029219057158007
118	0x3f4e9b6912b5a08a	0.0009340537120978859
119	0x3f25e5b4b104c28f	0.00016706305223969763
120	0xbf60955f709f01d9	-0.0020243515072879523
121	0x3f61a5913b0ba381	0.0021541439567624447
122	0x3f6b7b918f908b1a	0.0033548205360757312
123	0xbf6f76e6dff47bc0	-0.003840876510039476
124	0x3f52d3104b7b9144	0.001148954308456033
125	0x3f3d408ff46b8854	0.00044635309715890703
126	0xbf600e59ba307ba4	-0.0019599678503392105
127	0xbf6d6d3ee901757b	-0.0035921314920829817
128	0xbf5ddce53e0f91de	-0.0018226851172978768
129	0xbf5bbf40249948bf	-0.0016935469051487099
130	0xbf613e5c3d459a78	-0.002104931025473985
131	0xbee541c5f70c7a56	-1.0136092642163183e-05
132	0xbf4352bcca29083c	-0.0005896970581675885
133	0xbf570b409aed18ee	-0.0014064913663829853
134	0x3f34bbda8da4ce9c	0.00031637273572757986
135	0xbf63a04bd6696db2	-0.00239577114125008
136	0xbf592436aa07edd1	-0.0015345128850857601
137	0x3f698ed40a63bf79	0.003119863645331064
138	0x3f33732ec6e83146	0.00029678241745114233
139	0xbf5420fb389c998a	-0.0012285664874497081
140	0x3f3cdd8371a9d092	0.0004404493244358844
141	0x3f17e75b20c3709c	9.118550969184003e-05
142	0xbf675af43b90c714	-0.002850987450551021
143	0x3f56ec862dbcc331	0.0013991651857844895
144	0x3f54d97d20a5b702	0.0012725564907571378
145	0xbf75430312373785	-0.005190860745143304
146	0x3f6a9c839b1a3e40	0.0032484598567135425
147	0x3f6e8829890675aa	0.00372703659395653
148	0x3f75181abeec7e61	0.005149940944448512
149	0x3f76fb88757b2dd5	0.0056109743524745586
150	0x3f01b6524fc70e7c	3.378332801020915e-05
151	0xbf4636ea163f44d3	-0.0006779330255942913
152	0xbf68dd5c2f601149	-0.003035240220017031
153	0xbf61796618ef63f2	-0.002133082779874667
154	0xbf6358aa17be32d7	-0.0023616144298500385
155	0xbf60a56ce3acbc8b	-0.0020320059533314775
156	0xbf5cc6615cbb9b58	-0.0017562819293119505
157	0xbf70fc51eeb3e406	-0.004146881149829978
158	0xbf79d32e189d91ff	-0.006304912627318248
159	0x3f183f326b354806	9.249444228956469e-05
160	0x3f1456aad58fc1bc	7.758538903580072e-05
161	0x3f7acd671a293223	0.0065435435704555315
162	0xbf598063de98d7c8	-0.0015564894951132103
163	0x3f7832c9da051b8d	0.005907810671778158
164	0x3f6bcf2cac182707	0.0033946869377857766
165	0x3f6bc2bea51578f5	0.0033887599499130513
166	0x3f68b6f2921d0a6f	0.0030169236860342822
167	0xbf3e1829f9bf7104	-0.00045920395655031664
168	0xbf540c9d4fa437d1	-0.0012237106553274377
169	0xbf624cb3dcd4bfb4	-0.0022338402692625107
170	0xbf44225252e2fa4c	-0.0006144430133401906
171	0xbf4da2b60d9ad09a	-0.0009044064456334045
172	0xbf68ff1c2561e297	-0.0030513334013984694
173	0x3f44608cd017236f	0.0006218612253913023
174	0xbf46b4812e61dec7	-0.0006929045455441257
175	0xbf6b296f8371d463	-0.003315656470983573
176	0xbf43472b91b7d05d	-0.0005883181324279997
177	0x3f39d4f8d27e0783	0.0003941638446961425
178	0xbf6a86ee5d6f63a2	-0.003238168293574665
179	0x3f481935079e5a27	0.0007354268011450824
180	0x3f519482e915d32d	0.0010730055258509439
181	0xbf48c854061955d4	-0.0007563028595522444
182	0x3f5aa8e803e77357	0.0016271844648294198
183	0xbf66219eccbe0843	-0.002701578288850677
184	0xbf7913d14e7a0584	-0.006122415164669607
185	0xbf221b28cf9f385e	-0.00013813851529537435
186	0x3f52c8360cbf256f	0.0011463668661114387
187	0xbf511a25ffdb75c4	-0.0010438319290452117
188	0xbf66816e083e26b4	-0.0027472638193487223
189	0xbf53816c64a52223	-0.0011905249144367267
190	0xbf60e1214b6ed5fd	-0.0020604753767325943
191	0xbf50bf42bf5eb4a5	-0.0010221626120981233
192	0xbf53cc1b701e4000	-0.0012083309124797381
193	0xbf5f7505c28b1b73	-0.001919990181862477
194	0xbf6e39c55507a79e	-0.003689656652785935
195	0x3f38ba8b2270028a	0.0003773297962084496
196	0xbf365ad42d74a9b5	-0.0003411071788429713
197	0x3f7598e5210bfab3	0.005272765193466244
198	0xbf6205bca85f79ed	-0.002200001213153549
199	0x3f5a900e90b9bca2	0.0016212599029150972
200	0xbf4e21277f8a0068	-0.0009194796430875953
201	0x3f6803d1009c1958	0.002931507308747399
202	0x3f67fd6675dfa322	0.0029284478359738056
203	0x3f2e9ca6a9d71536	0.00023355040040776994
204	0xbf669535c178b3bd	-0.0027566957394555545
205	0x3f671dec4bd1a021	0.0028218856009978453
206	0xbf74eaa65a31561a	-0.005106592000705424
207	0xbf75591b5a4e9eba	-0.005211932036139616
208	0xbf424f4d9ef22efb	-0.0005587700851647776
209	0x3f7101e0d282b279	0.004152181827674733
210	0x3f6306fb77c78ca7	0.0023226653558921675
211	0x3f5de4bbbfb03f0a	0.0018245538219651713
212	0x3f6b807823eac2ea	0.003357157372498744
213	0x3f701939a8d9eed2	0.003930306656566978
214	0x3f777b1c6e9ba85b	0.005732642233605113
215	0xbf3e3ab41d4cce7c	-0.0004612626774360485
216	0x3f58567f16532348	0.0014854661069867037
217	0xbf3e88d0908b2f3d	-0.00046591846380005295
218	0x3f588998e8a9f72b	0.0014976495027946939
219	0xbf601727392ae742	-0.0019641653137484625
220	0xbf73a0261fd43189	-0.0047914017898275174
221	0x3f11cca9a67b0134	6.789956534714454e-05
222	0x3f523a7acb463d67	0.00111257545094986
223	0xbf59046ce179310b	-0.0015269339836719322
224	0xbf675fc0367b1614	-0.002853274741797982
225	0xbf58e7dd1832a7f6	-0.0015201243520928088
226	0xbf51a6b287527bcd	-0.0010773414080984423
227	0x3f5063e75ef2d757	0.0010003814202667793
228	0xbf445479bca59c59	-0.0006204218309847728
229	0xbf08771528afc796	-4.6663602084508874e-05
230	0xbeef7fd04a3dcfe0	-1.5020023347501966e-05
231	0x3f25bc9941ab80f8	0.00016583796317260597
232	0xbf65b6e67c4d4904	-0.002650690238092614
233	0xbf426df70b36f37f	-0.0005624252575483351
234	0xbf0b8b1868396f87	-5.253475412977855e-05
235	0xbf688b164ddd12f7	-0.002996009409715557
236	0xbf5d50e07eb1622b	-0.0017893020947409393
237	0xbf5876e055ba707b	-0.0014931860704683597
238	0xbf6b2dcd5c6ed51d	-0.003317738624412882
239	0x3f69f635340f66f5	0.00316915885239843
240	0xbf71e71f3e013c40	-0.004370805778378062
241	0x3f571a6a856736b1	0.0014101066823174852
242	0xbf7ea6f6b40b5026	-0.007483447727924674
243	0xbf6b840e0477b35e	-0.0033588670519208294
244	0x3f5c4c3b0a48be8f	0.0017271591724571688
245	0x3f6c0391efda096b	0.003419671090172096
246	0x3f081e5909139200	4.600247587819087e-05
247	0xbf652bf8de8ef6cc	-0.0025844441156256167
248	0x3f3a039f2738eb38	0.0003969443853041768
249	0x3f5c50717d8e56fe	0.0017281635575491778
250	0x3f723eb9a5ca3161	0.0044543506488817506
251	0xbf661c815865299f	-0.002699139239813422
252	0xbf78b1629f44974f	-0.006028542750106627
253	0xbf70047dcb5bead8	-0.003910533317816621
254	0x3f53d8b62c897cea	0.0012113360445694062
255	0x3f562d0b4c0823d1	0.0013535127947099555
