output_images/models/model-HLS-9.pkl_02.npy (npy, 49328 bytes, 1 tensors)

array (column-major) f8 [1, 6156]
000000 6b f4 37 30 7a 9b 52 3f c3 e0 67 d5 38 7c 62 3f
       0.001135701489032993 0.002256499293476906
000010 72 69 1b ca 0b 86 7a 3f c8 f4 c5 29 d4 3e 81 bf
       0.006475492527636783 -0.008420617604082983
000020 c9 84 15 98 be 1e 71 bf 78 c4 dd ee 00 0c 6c bf
       -0.004179710872763206 -0.00342369253387936
000030 c7 fa f4 db a2 d0 4b 3f ee 88 d5 07 78 1e 7d bf
       0.0008488459788294705 -0.007109135503329462
000040 bf 7e 3e f7 25 c1 53 3f 94 73 46 d2 1f 8e 7b bf
       0.0012057181129207365 -0.006727337171835841
000050 19 7e 33 ca 29 62 70 3f 17 8a 4b e5 fa 34 60 3f
       0.003999865762323939 0.001978387861855123
000060 be bf 2d 66 fb d9 79 3f bd af e3 ed 7b 39 76 3f
       0.006311399486420953 0.005425914858488254
000070 2c c4 f4 87 34 d9 72 bf 17 a1 76 43 28 33 7d bf
       -0.004601674270177585 -0.00712886550847027
000080 a8 c2 f5 1f b3 f2 78 bf ff f8 ab 8a 94 be 8f bf
       -0.006090831476612969 -0.015500221712042348
000090 0d 0d a7 ee 3a a2 66 3f 26 e2 ae c1 50 51 f0 be
       0.0027629042644733482 -1.5561712739505438e-05
0000a0 0f ad aa b2 33 a1 5e 3f 3e 46 66 96 76 75 71 3f
       0.0018694882261723366 0.00426241229287566
0000b0 6f 72 45 f3 6c 0b 16 bf 3d 06 f5 bb 99 70 3f bf
       -8.409359435774544e-05 -0.00047973397518683345
0000c0 ef 36 0d 61 d6 26 72 3f 42 16 7b ec 6c e4 6a 3f
       0.004431569498434248 0.0032827498833707678
0000d0 09 d2 0a 02 2a 25 71 3f 7f a3 58 e5 8c 77 62 bf
       0.0041858330666184685 -0.00225427168586062
0000e0 3c 04 e4 23 cd e3 6b 3f 5c 0c cb fe 94 10 81 3f
       0.003404522575806838 0.008332408929510197
0000f0 18 05 31 7f be ed 79 3f 37 69 3d 57 8e ba 47 3f
       0.006330246094024682 0.0007241435073226725
000100 94 23 29 4e 66 a2 4f 3f 9e d2 5c 4c 00 20 52 bf
       0.0009654044664070154 -0.0011062624848367296
000110 4c eb c1 68 b6 8b 75 3f 36 5d 71 9c 0b c6 6e bf
       0.005260193382236999 -0.0037565447596922498
000120 24 99 24 46 da a7 69 bf 78 ee 94 15 b8 cb 69 3f
       -0.0031317961849196708 0.003148898639350691
000130 19 8c 78 c2 fd e8 6b 3f 74 46 35 c1 09 69 6c 3f
       0.0034069973223878167 0.003468054821191663
000140 df 9c 54 a2 b6 c6 5b 3f 1a ab 09 59 3e 76 80 bf
       0.001695326188675676 -0.00803803166600896
000150 4f b0 14 86 cc af 7c bf bc 53 5a ac 68 ef 74 bf
       -0.007003592415724637 -0.0051111305998760535
000160 01 5f e4 76 1f 62 8a bf 76 5d d1 89 1e d5 60 3f
       -0.012882467094228913 0.002054748196808449
000170 22 44 b9 e8 25 3b 39 3f 28 0d d9 f3 e6 c5 5e 3f
       0.0003849952269990316 0.0018782382388885053
000180 ca 7b 57 04 a6 a1 71 3f ba bd e2 e6 8e cf 31 bf
       0.004304550651311476 -0.0002717708474717324
000190 0e d2 2d 54 34 cb 6c 3f f0 31 ef cf 46 44 61 bf
       0.0035148641631457317 -0.0021077521373398175
0001a0 85 85 94 28 63 33 51 bf c4 da d0 b9 19 f4 6a bf
       -0.0010498493523488372 -0.0032902243097184553
0001b0 8e 81 16 ec 09 73 6e bf fb de 9d f8 ab 15 57 3f
       -0.0037169641297653605 0.0014089755445336183
0001c0 a3 60 0a a8 e5 28 7e 3f db 4c 8f a4 0f de 70 3f
       0.007363221259446248 0.004118023972256436
0001d0 0a 70 ae 7a da 32 42 3f ad 99 34 1b d6 4a 56 bf
       0.0005553786080443335 -0.0013606158143574063
0001e0 a0 0e a7 65 13 4a 65 3f d9 45 da af ee 0d 78 3f
       0.002598798642084635 0.005872661944196855
0001f0 b4 d6 9b ae 50 3e 76 bf 92 06 40 36 81 4f 5c 3f
       -0.005430522121732718 0.0017279397807218638
000200 75 6a 3b bd 56 f3 73 3f 15 ff d2 d1 aa 1c 66 bf
       0.0048707378625417646 -0.002699216491777077
000210 7e 2f 3f 02 f9 f5 71 3f df 3a ea 94 e6 3d 71 3f
       0.0043849684624993595 0.004209423742067313
000220 d4 0f fe 18 2c 82 6a bf 78 37 09 0e 46 60 6a bf
       -0.0032358990937968266 -0.0032197349794733064
000230 6a d8 b7 a3 84 be 63 bf dd 3e a9 bc b7 c7 6a 3f
       -0.002410182057924583 0.0032690609562350107
000240 f1 92 30 ab 34 84 59 bf 6d 6f 2d 07 a1 85 69 bf
       -0.0015573992102499402 -0.0031154770926330928
000250 f9 5c a6 ec 87 49 51 bf e9 23 30 b0 9c c1 5b 3f
       -0.0010551288019991485 0.001694109931806626
000260 d1 ac 3a 3b 2f 45 54 3f 5e ab 81 1b 18 84 3a bf
       0.0012371979945935872 -0.00040460194168783447
000270 8a bb 4d 5e be d3 6f bf 14 26 fa ec a6 ff 71 bf
       -0.0038851469166085216 -0.004394199422344442
000280 5e c5 a5 84 5b 1f 7d bf 01 ba 25 30 2f 1b 49 3f
       -0.007109982960501552 0.0007661800776029294
000290 29 1b 66 de a8 66 39 3f 7d 63 bd 8a a7 4c 78 3f
       0.0003875887181483012 0.005932478390456517
0002a0 78 2a 7f fb 0d b7 87 3f 4f c9 86 89 60 cd 71 3f
       0.01157961772687098 0.0043462534890060375
0002b0 ee 1d fb 88 c3 76 7e 3f 14 23 b4 63 cc c4 41 3f
       0.0074374807442789525 0.0005422590251394654
0002c0 ca 55 f4 39 0d 5c f4 be 8b e7 b5 eb c5 2c 64 bf
       -1.9416405504809634e-05 -0.002462755741075411
0002d0 58 d4 77 5b 8a 51 53 bf 38 a3 94 43 3d 2d 50 3f
       -0.001179108728931474 0.0009873483925934689
0002e0 f6 b9 3f d1 5b 35 79 bf d0 1f da 3b ca 8f 62 3f
       -0.006154402410159401 0.0022658300284241553
0002f0 63 c1 f1 80 7d 2f 33 3f 78 39 e9 0f 25 97 6b bf
       0.0002927476315966097 -0.0033679698820271962
000300 0d 00 0e e9 97 49 64 bf dd 48 83 c6 f8 73 5d bf
       -0.0024764983176623957 -0.0017976693580306548
000310 f2 2d bb 6e a0 5c 4e 3f 2a 7c 61 99 3b 88 60 bf
       0.0009265693056134657 -0.0020180858655716354
000320 a1 28 11 1c 47 12 67 bf c3 1c c5 ca a9 db 15 3f
       -0.0028163327083677446 8.338188007882539e-05
000330 1d 7c 54 b0 f3 f4 2d bf 6a ab 1d 2a 16 a4 69 3f
       -0.00022855257717766054 0.0031300003910720757
000340 ff 44 df b6 39 f3 61 bf 68 0c 0d a6 f6 55 32 3f
       -0.0021911742432868526 0.000279782025291725
000350 67 6f 6b 3a 8e 9b 82 bf 80 4e 57 24 8c 0b 69 3f
       -0.009085761220766831 0.003057264055977005
000360 00 df 63 59 26 83 4b bf 8e 7a fb d0 4d d5 6a 3f
       -0.0008396088840347538 0.0032755393839203955
000370 4c b2 f9 de 1d 0a 82 3f 95 e6 8d 42 16 21 8d 3f
       0.008808358542603 0.014223264604640998
000380 05 75 b5 75 97 bf 6a 3f 46 a0 bf d5 1c f5 60 bf
       0.003265186138078693 -0.0020700038130492563
000390 5b 66 ad b2 55 25 6c bf bb a4 e3 df 70 b7 70 bf
       -0.003435771349739975 -0.004081192890432901
0003a0 17 d6 ad 6f 28 08 76 bf 74 42 4d 4f 9a 0e 52 bf
       -0.005378873781287228 -0.0011021143847821631
0003b0 b0 ea 3c b2 78 64 80 bf cf d1 b1 51 8d d2 66 bf
       -0.008004134120360135 -0.0027859459055952006
0003c0 c6 e8 06 35 7e 3f 64 3f 67 4d 43 40 6f e0 60 3f
       0.002471682070077727 0.0020601437446232
0003d0 7d 88 2d dc 87 72 7b 3f f5 d1 a2 14 f0 05 75 3f
       0.0067010218652702154 0.00513261586654722
0003e0 f1 12 17 e3 f3 f6 7b 3f 77 ee 14 fe 2b 43 64 3f
       0.006827309306974825 0.0024734362820291694
0003f0 9b bf 90 c8 79 e0 71 bf 6a 3b cc 6c 72 54 5c bf
       -0.004364467350612157 -0.001729118102222061
000400 e4 1f 94 f9 ab a7 43 3f 27 6a 5a 19 2b 54 71 bf
       0.00059982201779096 -0.004230659823998318
000410 10 f9 b3 a2 69 24 31 3f 8c 92 93 60 b4 64 70 bf
       0.0002615697764695316 -0.004002289389266733
000420 c5 5e c3 cf f7 5f 37 bf e5 46 03 0f 48 ba 80 bf
       -0.00035667228781964224 -0.008167803724436104
000430 5a 84 f2 ce 01 7f 52 3f 83 6c fd d8 1d d5 17 3f
       0.0011289136562384811 9.091372180363055e-05
000440 64 55 7c 48 a2 6b 57 3f 41 72 07 ba 0a 1a 55 bf
       0.0014294705196723151 -0.0012879471543022632
000450 f7 9f 53 3e a0 b8 73 bf 02 60 8f 8d d1 2b 65 3f
       -0.004814744902638771 0.0025843708831239107
000460 4f d7 7c 06 c1 af 41 bf d4 36 02 fd 96 bd 63 bf
       -0.0005397503382258225 -0.0024097393980529822
000470 cc 57 bd 6d 89 00 79 bf 3f f7 c3 3e db ea 6b bf
       -0.00610402758669255 -0.003407886708486268
000480 d4 bf a8 2b 95 d6 51 bf d4 87 f4 83 8b 25 78 bf
       -0.001088758158072513 -0.0058951806852593665
000490 cb 7c f0 18 ce a2 4f bf 2f f6 4d 50 9d 85 71 3f
       -0.0009654527983719239 0.004277815348243715
0004a0 6b 35 0e 80 2a cf 66 3f f3 6d d0 8e 5d a6 55 3f
       0.0027843313295707237 0.0013214028979352504
0004b0 0b 3d af 9d a4 98 4a 3f 6a f2 a5 2f ab 56 7d 3f
       0.0008116534985393176 0.007162731834224981
0004c0 fd 38 0b de fc a4 6b 3f 52 37 7b 29 4b 4a 67 bf
       0.003374570733604475 -0.002843043137409498
0004d0 6a 1b b8 21 d3 c4 76 bf 1e 00 5d d0 db 51 82 bf
       -0.005558800442947079 -0.008945195480578202
0004e0 3e f0 d6 13 56 b1 64 3f ec 5c 68 c0 5d 82 7d 3f
       0.0025259667588368997 0.007204405038030642
0004f0 a8 c1 e8 cd ad a2 27 3f 30 cd 23 d9 e7 39 79 3f
       0.00018032428393289818 0.006158738762894786
000500 2c fb 53 42 b8 82 72 3f 12 c9 d4 96 8d a4 64 3f
       0.00451919532974791 0.002519871274352722
000510 49 e7 b7 68 c7 f9 43 3f 17 d8 57 46 9f f2 51 3f
       0.0006096099545509294 0.0010954432885887982
000520 3c 83 17 5d c4 9f 44 bf ca f0 22 0d 74 51 67 bf
       -0.0006293972784839684 -0.002846457159732284
000530 a5 17 95 a6 d3 14 66 3f 38 4f 3b 63 32 d9 51 bf
       0.002695477848336974 -0.0010893814150465097
000540 fe 46 08 0f b5 e9 6c bf ad 54 d8 10 e8 71 76 bf
       -0.0035294090560079585 -0.005479723460230773
000550 a9 b6 09 97 b3 17 3f bf 7e 03 5a ee 5b d0 6f bf
       -0.00047443518182075734 -0.0038835330513510838
000560 f0 39 fc 66 9a ee 5f 3f 62 07 78 ae 27 08 30 bf
       0.0019489772639108525 -0.00024462670123181183
000570 ae b0 b6 8a 25 b2 38 3f a1 25 ce f7 60 47 f2 be
       0.0003768293051631494 -1.7432044376463504e-05
000580 cc 1e ac 46 03 fc 71 bf 3e 9a f9 5a 73 ca 75 bf
       -0.004390728757023243 -0.005320025069159016
000590 f8 cd ca 65 07 07 80 bf 05 79 e7 e5 56 97 60 3f
       -0.007825906557036952 0.00202528927114465
0005a0 78 5b c4 8a ac 34 72 bf cc 9c 2a 26 9a de 80 bf
       -0.004444765083710382 -0.008237079896686338
0005b0 3c c1 c8 08 0f f9 7c bf 96 1e 50 4f 35 66 77 3f
       -0.007073458411966545 0.005712707749814824
0005c0 35 40 20 54 62 b6 79 3f df 82 ac 0d cc 05 74 bf
       0.006277450653229312 -0.004888341029783943
0005d0 ed f8 1e 22 6b 76 67 3f 92 f8 f2 0d 43 8e 30 3f
       0.002864083523461783 0.0002526200968978677
0005e0 5c 42 88 d6 e3 9c 47 3f b7 fa 67 be 7f 08 87 bf
       0.000720607041389053 -0.01124667930434718
0005f0 75 68 fd 98 45 24 61 bf fb 82 98 d5 5d e2 69 3f
       -0.0020924910858584563 0.003159697790366398
000600 2c 31 9d 0b e6 24 72 3f 6e 3b af 8c 5d 0d 6e bf
       0.004429720511165674 -0.0036684825076699823
000610 4d 22 96 02 42 68 6f 3f a6 10 61 0b 52 2e 51 bf
       0.003833893705351954 -0.0010486413207369343
000620 ce cb 65 36 2f eb 58 3f 48 54 1c af 7d b8 70 3f
       0.0015209160861473395 0.004082194283701553
000630 88 5d 0c e5 80 72 62 bf c1 59 78 73 f8 0f 65 3f
       -0.002251865146159996 0.0025710918960257516
000640 21 b5 ce b6 bf 89 4c bf d8 43 f0 82 5c f2 6e 3f
       -0.0008709131339991496 0.0037776762833421178
000650 bc c2 d4 e6 1b 8d 67 3f 5e 59 02 9f a6 e7 50 bf
       0.0028749031977429434 -0.00103179236979186
000660 dc c2 c8 e3 75 e6 72 bf db 63 d1 43 a4 ba 7e bf
       -0.004614315516435066 -0.0075022141073412775
000670 7f a0 5b 50 e3 35 6a 3f bf b3 a2 06 f9 d7 62 bf
       0.0031995238995144444 -0.002300249460935849
000680 29 dc ba 10 ff 9d 5e 3f bb 84 e0 8b 89 ee 82 3f
       0.0018687239525385735 0.009244036275108383
000690 79 39 0b 87 7f 60 61 bf 96 5f 8b dd 83 af 46 3f
       -0.00212120921819475 0.0006923097490369897
0006a0 f3 01 51 74 7a aa 49 3f 70 e0 2c 5e 87 54 78 3f
       0.0007832620546040489 0.005939987927199394
0006b0 53 7e 5c 97 58 59 74 3f 8c 64 ee 06 f3 9d 71 3f
       0.0049680195423032645 0.0043010228390808584
0006c0 a9 5a fc 1e 3b 31 8a bf 96 5c b5 6c fa b7 6c bf
       -0.012789213069067289 -0.0035056964021965105
0006d0 2c ea 5a 56 b8 ad 48 3f 61 71 2d 53 dc e7 77 3f
       0.0007531309208482265 0.005836353916347598
0006e0 19 a3 54 b8 4a 9b 48 bf b3 17 f7 16 6a 55 70 3f
       -0.0007509341091110649 0.00398770753185389
0006f0 48 13 71 d0 d3 43 66 bf 32 91 37 49 90 84 53 bf
       -0.0027178894993390747 -0.0011912735980042608
000700 a8 53 32 62 46 41 62 3f fb 6f 81 3b c8 d5 7a bf
       0.0022283911399178687 -0.006551534803374888
000710 ba 04 b3 5f fb a5 70 bf df b2 49 99 c2 3f 54 bf
       -0.004064542702679913 -0.001235904729720953
000720 26 d8 80 52 ab f1 40 3f 57 e8 25 13 44 62 6d bf
       0.000517090466934493 -0.0035868959031946468
000730 8a 58 0e 04 94 0e 66 3f 93 85 9f d9 a1 30 58 bf
       0.002692498296208494 -0.00147643857643973
000740 f2 98 81 03 84 3e 70 bf ae 75 9c 0c bf 7c 65 3f
       -0.003965869596959092 0.0026229602270990337
000750 7f 0f 61 2b 3d 99 61 bf dd 84 3d 25 05 01 62 3f
       -0.002148265334683985 0.002197752046342856
000760 22 30 7a ab e2 f2 7d 3f b4 ce 77 2a ca 3d 6e bf
       0.007311711720500854 -0.003691573004965887
000770 1a 8d 93 0a 9f 44 3c bf ad 91 b7 48 3c b0 6b 3f
       -0.00043133623928622163 0.003379934065138998
000780 b9 80 81 04 be 8c 78 3f a0 ef 75 a6 47 a3 6e 3f
       0.005993597275022627 0.0037399672907536124
000790 13 f2 4a 13 f9 f6 67 3f 85 d0 1d cb 3c 7c 67 bf
       0.002925383067433404 -0.002866858231692917
0007a0 4e 79 30 7f ee 8c 73 bf 27 7a fa 88 a4 98 70 3f
       -0.004773074749236562 0.004051821437001147
0007b0 aa eb dd ea 4c b7 6e 3f f1 f2 1b ec 7a 35 7b 3f
       0.003749513844863957 0.006642799535026654
0007c0 cb 10 25 35 dc ca 59 3f ea c2 f2 42 51 df 6e 3f
       0.0015742445435345416 0.0037685954226492806
0007d0 f6 0f 35 c7 cf b5 79 3f 99 e5 01 35 38 6d 71 3f
       0.0062769047102086886 0.0042545505131043266
0007e0 46 94 7c 2e 5b a9 3c bf 26 42 91 33 d8 29 6a bf
       -0.000437340508584964 -0.003193781155040892
0007f0 4e b0 07 d6 3a 51 58 bf a9 8b 2a cf 86 06 5c bf
       -0.0014842104502532818 -0.0017105404373658295
