output_images/models/model-YCrCb.pkl_02.npy (npy, 49328 bytes, 1 tensors)

array (column-major) f8 [1, 6156]
0	0x3f901bfbcd449393	0.0157317489657945
1	0x3f985c45be4a8eca	0.023789491404967923
2	0x3f70b260ed8406da	0.004076365112497727
3	0xbf5bf470abcbe3e9	-0.0017062282851709693
4	0xbf81c99457623abf	-0.008685263554324306
5	0xbf81b492bdc17a4c	-0.008645197311293228
6	0xbf6f778aa2bbe0d8	-0.0038411815384017216
7	0xbf7f7f1e69c6a370	-0.007689589311134934
8	0x3f51af062462142d	0.001079326627889242
9	0xbf5647555ae3bd1e	-0.001359780649689508
10	0x3f8b3e9589bdeef9	0.013302963510561027
11	0x3f67fe8c0324f203	0.002928994618882409
12	0x3f5f469a9628a727	0.0019089231142381342
13	0xbf80ea45c8a3cf5a	-0.008259339509528441
14	0xbf5dae8f5724660e	-0.001811637860163254
15	0xbf5c0c7102fb3d32	-0.0017119506482464295
16	0xbf67236bb362d4f0	-0.0028245070962734584
17	0xbf85214fbe83e84c	-0.010317442895473893
18	0x3f7fc600d36b1891	0.007757189966190251
19	0x3f898dc6ca0486b2	0.01247744850167307
20	0xbf827131574d4a98	-0.009004960514777324
21	0xbf812c3c4b48ca4b	-0.008385153815742138
22	0xbf68d3b59b0f161f	-0.003030638407355082
23	0xbf6f2ae10058672d	-0.0038046259458156735
24	0xbf7b29dd6810084e	-0.006631722325439139
25	0x3f4a0da2a2b5d362	0.0007950824851109368
26	0xbf61b16e26b46cf9	-0.002159800662082764
27	0x3f669d066b66e03a	0.0027604222661601592
28	0x3f8e7198e9c74f39	0.014865107187609904
29	0x3f772b0faca82f78	0.0056563007624495995
30	0xbf6990d3e970e8ba	-0.003120817079914931
31	0x3f6273ce90bc9e79	0.0022524866561928728
32	0xbf734aa1dfdc42de	-0.0047098468037496104
33	0xbf5c47f545e14fb8	-0.001726140522369397
34	0xbf3663b0f20a496f	-0.0003416354175353108
35	0xbf7060a0d76f6f2c	-0.003998401915818833
36	0x3f7c1aeafd7d263f	0.006861608438904875
37	0x3f8ea52ec20cadf0	0.014963498398706115
38	0xbef9977c988ba971	-2.440618985392315e-05
39	0x3f6e68040e1075cd	0.0037117079923649544
40	0xbf824f2927d51543	-0.008940049675070788
41	0xbf6e94d17752e14d	-0.0037330714354448014
42	0xbf6729d3be594f7b	-0.002827561914083119
43	0xbf578d00e92b54bb	-0.0014374264616681526
44	0xbf75e0b80527c110	-0.005341261700309255
45	0xbf8dcfcd7c81e913	-0.014556508409658641
46	0x3f4013147767ff2b	0.0004905557569258914
47	0xbf795e3c8c5759bb	-0.006193386570393529
48	0x3f7e836e2c267bb2	0.007449560509853835
49	0x3f74b6a13b33f3fd	0.005056981858840179
50	0x3f3cf681c69b705d	0.00044193905214995837
51	0x3ef3b990e7541d2c	1.8811099342233895e-05
52	0xbf5d5388ecbc5ec7	-0.0017899357944254778
53	0xbf77d12a02072483	-0.005814708798831283
54	0x3f7cb3bb1377bdd4	0.007007342115215438
55	0x3f8d0e00d14e6e8c	0.014186865222476606
56	0x3f768bc5a1357856	0.005504390708067039
57	0xbf730b29a764b2b9	-0.004649317465276575
58	0x3f355c45d4c1b1a1	0.00032593445644726367
59	0xbf663e833fda03b8	-0.0027153552499048182
60	0x3f5f7e79ca9455ec	0.0019222440117280205
61	0x3f6fe60b82c0ad85	0.003893873674334083
62	0x3f20977a19a52c2d	0.00012658467751189406
63	0xbf8b095bf882987c	-0.013201445123126591
64	0x3f7ec53d0d42c540	0.007512320026010599
65	0xbf457e6ff04f3aa3	-0.0006559416366317027
66	0x3f42c04ac6250a88	0.0005722394092021058
67	0x3f6d1935a33381cd	0.0035520598990929964
68	0xbf816fb2deb18cd4	-0.008513829632823912
69	0xbf7b09c3c6715b44	-0.006601109263178643
70	0xbf8098aacd129a69	-0.008103689559289156
71	0xbf73caa2068470be	-0.00483191767878227
72	0xbf812987de9c9e12	-0.008379994851181603
73	0x3f67a8faa9f3d162	0.002888192727931991
74	0xbf7cb069fed6a401	-0.007004179043556214
75	0x3f70d5c6b3f95e61	0.00411012285584142
76	0x3f73582c022284e9	0.004722759158682901
77	0x3f4fd5a5d80b36c1	0.0009715137276431128
78	0xbf5db392ae5f40a7	-0.001812833064367006
79	0x3f38e7770b58d88d	0.0003800073276097958
80	0xbf5b49a25c1ebad9	-0.0016655049844122498
81	0xbf50579d6ebd283d	-0.0009974515368918046
82	0xbf650ebe1f04559d	-0.0025705064109710755
83	0xbf6fdbe36c5bba58	-0.003889030634005846
84	0xbf06790d72117c05	-4.286358149196288e-05
85	0x3f887b597c98f8c0	0.011954020609774907
86	0x3f71749cb5905ab4	0.004261600633091934
87	0xbf76c5057b62d470	-0.005558988012286922
88	0x3f523f9ee6a941d2	0.0011138011710906015
89	0x3f6a68208b939338	0.0032234798096503446
90	0xbf7e99cdfb842dde	-0.007470898264965579
91	0x3f885837e852c84c	0.011887013223120267
92	0xbf75460754d1949e	-0.00519373763845468
93	0xbf5cc5b254692155	-0.0017561189175854992
94	0x3f3d202b28fb0ae6	0.00044442228043466007
95	0xbf7c64fd75498ed3	-0.0069322491368415005
96	0xbf7021c625ef3a51	-0.003938459411939891
97	0xbf657949810da32c	-0.002621310770724602
98	0xbf5bbbd6d6f24360	-0.0016927335780431915
99	0xbf73ecbdcb801da1	-0.004864446054859612
100	0x3f6e5ac43e0f782a	0.003705390249236569
101	0x3f75c571ab5010c7	0.00531525041606446
102	0xbf485cef75dd16d6	-0.0007435006370790319
103	0xbf6bd1aabfc2b31d	-0.003395875448481424
104	0xbf3a7670d9272600	-0.0004037881382400188
105	0xbf75f91c53729fed	-0.0053645235522381375
106	0xbf6d1c9d43b92e1a	-0.0035536834309704115
107	0xbf7b4ae4c089a1bc	-0.006663220942393296
108	0x3ee2b1747e3f744e	8.913604638333607e-06
109	0xbf5b57b544b51905	-0.0016688604544739538
110	0xbf748b0262518c2a	-0.005015382111284198
111	0xbf5a6201b1c0ed99	-0.00161028066123845
112	0x3f84f9157d3ca9d7	0.01024071491663829
113	0x3f6afcb6c5ea9623	0.003294331530315346
114	0xbf799b0cdb7fee1a	-0.006251383041667969
115	0xbf2e1bd463ce6f94	-0.00022971122407688656
116	0x3f632c350fe4a70f	0.002340415608291908
117	0x3f32032726894817	0.00027484613250294956
118	0xbf7318ba0b503ad9	-0.004662253127220872
119	0xbf6d08a33923ad84	-0.0035441577866685576
120	0x3f65490ed8977df6	0.0025983133279934246
121	0x3f87ae0a84f6af10	0.01156242578766567
122	0x3f6747494aa2fba2	0.002841609141881433
123	0xbf6a463d26159dfb	-0.0032073206245291064
124	0xbf61e0dd434a4ee5	-0.0021824189701166057
125	0x3f750eb954878327	0.005140994974198765
126	0xbf663798f3f165b7	-0.00271205781568248
127	0x3f70027247b64125	0.003908583075272786
128	0x3f61fc5790909472	0.002195521378342274
129	0xbf6c185e8e6a346e	-0.003429588966645406
130	0xbf64d71ceb1c8324	-0.002543980103738257
131	0xbf66fa02f28f80ae	-0.002804761654701413
132	0xbf780f3c7ecf4a89	-0.005873905477488458
133	0xbf776c3bfc25d10e	-0.005718454662531748
134	0xbf7b117e67d1d81d	-0.006608480235732042
135	0xbf7e6c13e639aa03	-0.007427289706905873
136	0xbf60bd1e49f82415	-0.0020433036404523632
137	0xbf67079db76bfa5f	-0.002811248817465014
138	0xbf711e6827ef8f02	-0.004179388865825253
139	0x3f225afdb3b7b4a7	0.00014004084537991743
140	0xbf78017918b609cc	-0.005860779794036163
141	0xbf82e18b324f85e3	-0.009219253037318026
142	0xbf7e10317a82afe9	-0.007339661861049487
143	0xbf6af7575f7baed7	-0.0032917696479354097
144	0xbf4a6e1f80ae3494	-0.0008065847226689398
145	0xbf74c512e981f16c	-0.005070756793540059
146	0xbf6088c6663fb94e	-0.00201834440121399
147	0x3f602943acba4793	0.0019728013774704205
148	0x3f85b2a261dc8c92	0.010594624148842411
149	0x3f67735f9d7c8326	0.002862631557846734
150	0xbf714e55ac72cc22	-0.004225096380809952
151	0xbf50d088a54f6754	-0.0010262808257181693
152	0xbf0d8fb061db08f6	-5.638367677597733e-05
153	0xbf847aa6b5844197	-0.009999563612411317
154	0x3f63bbd95782466c	0.0024089093167923206
155	0xbf40aa83fbf9b931	-0.0005086082891930019
156	0xbf736145a7cdd4c5	-0.0047314377705919885
157	0x3f86a0a820582041	0.011048615920131623
158	0xbf562c6981d28429	-0.0013533621161416853
159	0x3f687086490d28f6	0.0029833433876876826
160	0x3f6d5a32792ed5c7	0.003583048420717747
161	0x3f815c2ff377899f	0.008476614587327456
162	0xbf80cec85be9c2ce	-0.008206906609502875
163	0xbf786582f22789fb	-0.005956183917506848
164	0xbf79a4fa45418d89	-0.006260850543273641
165	0xbf7cd2727ea843c4	-0.007036635632645397
166	0x3f4529cf46473b8e	0.0006458532412184513
167	0xbf78f3326b2a0500	-0.006091305682845105
168	0xbf7abea39e8ae1f8	-0.00652946389953301
169	0xbf6755ecac0c337a	-0.0028485891820139693
170	0xbf6db0d64e5dabf2	-0.003624361578592688
171	0xbf80745eaae58bb0	-0.008034457769729858
172	0x3f65a7b51f76168c	0.0026434457356028836
173	0xbf5cafb3e95839e5	-0.0017508751819864607
174	0xbf870da3632e5c84	-0.011256481613413756
175	0x3f3a972d4ca61ff6	0.00040573936407683976
176	0xbf7065994a6ae3bd	-0.004003142158290393
177	0x3eeca163d075d07d	1.3652052543313077e-05
178	0x3f82a681bfcc7acc	0.009106649080022143
179	0x3f6c799c4bf55581	0.003475957171455491
180	0xbf8387f09f0a54c2	-0.0095366285834565
181	0x3f4f52065daa2b9a	0.0009558230479610353
182	0x3f3f41bd1976a3b6	0.0004769407909984107
183	0xbf69f04a2bcc5014	-0.0031663368848828897
184	0x3f8646ff5a835058	0.010877604436622487
185	0x3f504462eaa3d03b	0.0009928670866061879
186	0x3f7188c52a81f9a0	0.0042808248327887155
187	0x3f798373d85613fa	0.006228878516940201
188	0x3f7d3ba40b403b25	0.0071369560209990955
189	0xbf72fb5e9e1cc8c8	-0.004634255981544828
190	0xbf84f3bac2b9f2e0	-0.010230502193047497
191	0xbf6cb5c6c8a1f92f	-0.0035046465391693963
192	0xbf4e2559f8bc1ca2	-0.0009199799837639364
193	0x3f657b8959fc2067	0.002622383370070525
194	0x3f4b3d22e81b4c45	0.0008312626307208712
195	0xbf64290d90aad599	-0.0024609818404665693
196	0x3f7b113f453a10d9	0.006608245039050519
197	0x3f8672cfb7b01207	0.010961172860342051
198	0xbf7f52feed171f00	-0.007647510342799313
199	0x3f523bbc1f8076b3	0.0011128747119139415
200	0xbf6781219d688d56	-0.0028691917934950224
201	0xbf8824cc6ad9e69c	-0.011788937579001506
202	0x3f4dd8b98ee5cbfa	0.0009108453794354203
203	0xbf5daa8ecaf39532	-0.0018106836758360998
204	0x3f5fe9e850cf4ad1	0.0019478577335020795
205	0x3f8754698da78df8	0.01139147246880777
206	0x3f72d2c5b8831a71	0.0045955394236388706
207	0xbf841ca924833cad	-0.009820290972497448
208	0xbf8b597d6cf547dd	-0.013354282271993806
209	0xbf6b773683f08618	-0.0033527436021507755
210	0xbf7946ad9de2f205	-0.006170919599921114
211	0xbf5b58b9cbef243a	-0.0016691030902953445
212	0xbf61c962a39d1e0d	-0.0021712233109700886
213	0xbf7c0e826e21c90f	-0.0068497748307996395
214	0x3f706241f1e56b6c	0.003999955746929778
215	0x3f7e893c4efcae2f	0.00745509679817817
216	0xbf66b024c806a1e4	-0.002769538725449149
217	0xbf7f223fccbd9ec8	-0.007601021974415985
218	0xbf4d268c88b140a7	-0.0008896051598501668
219	0x3f68316353511cff	0.0029532375288315866
220	0x3f6df0b3940f643c	0.003654814471229643
221	0x3f650b622a06cecf	0.0025689046162485694
222	0x3f63961d5d24eb6e	0.002390916205653174
223	0x3f8185b594525716	0.008555811489980008
224	0x3f86fabf77b06aea	0.011220451202509325
225	0x3f695b73493990b1	0.003095364730869653
226	0xbf750d2defb76b76	-0.005139522017510658
227	0xbf78187b356e3538	-0.005882722171816561
228	0xbf2c1fd9c8843189	-0.000214572272178148
229	0xbf7630e49ba2fc16	-0.005417721748187018
230	0xbf5c763a127e1c0e	-0.0017371718513190556
231	0x3f66fe5148bd421a	0.0028068149166886715
232	0x3f902aa0776217b1	0.015787608419962577
233	0x3f8a4861b5290755	0.01283336958033813
234	0xbf76d2c92d48d11c	-0.005572114798770646
235	0xbf729c6e0f44006d	-0.004543714447436381
236	0xbf4b0f4d77f85a42	-0.0008257988228617746
237	0xbf79bce4c6184a0a	-0.0062836586453323216
238	0xbf6d45025e7810f5	-0.0035729452390588176
239	0xbf6c975f1c26be58	-0.0034901483170058194
240	0xbf6ad5f4a15e80ff	-0.003275850099228816
241	0x3f7c1da03eae2a14	0.006864191013742377
242	0x3f882ea4114310bc	0.011807710434716838
243	0xbf81c0d5ce6b2dff	-0.008668585168741137
244	0x3f6434b24f62e8b9	0.002466533910674942
245	0xbf5201b253e82360	-0.001099037311748506
246	0xbf79afd27608af71	-0.006271192658953471
247	0xbf8744c4cfa65995	-0.011361634814232949
248	0xbf5c842da1effab8	-0.0017404981260821639
249	0x3f641ae9d0b513ac	0.0024542395309787492
250	0x3f74c0e9b3a304c6	0.005066788575448905
251	0x3f8695e3a4d17815	0.011028078524926635
252	0x3f86d5dbe6151a26	0.01115009113221983
253	0x3f90488e8e687de4	0.01590178245726105
254	0xbf8194b4296d8106	-0.008584411157869908
255	0xbf734bc62e1d3567	-0.0047109357272579816
