output_images/models/model-YCrCb-Full.pkl_02.npy (npy, 49328 bytes, 1 tensors)

array (column-major) f8 [1, 6156]
0	0x3f94b30fc048f040	0.020214315520419968
1	0x3fa0cec46cd09a3f	0.03282750919634169
2	0x3f606cd644c1791a	0.0020050225194118256
3	0x3f717208a5087663	0.004259141700939747
4	0xbf7933be9b800b28	-0.006152863083118722
5	0xbf8a15056da9bf9f	-0.01273540726580774
6	0xbf92bbb9921018cd	-0.018294238605471237
7	0xbf92037be3682dd7	-0.017591415171450322
8	0x3f5e998f63bf258d	0.0018676662721069687
9	0x3f4f3f5215adf921	0.0009535933307771896
10	0x3f9299caaa612f3c	0.018164793633601337
11	0x3f84bb943e317e81	0.010123403690328605
12	0x3f69905080055db0	0.003120572306368273
13	0xbf6a1123dbc0a4a5	-0.003182001148179641
14	0xbf547c7daaf0a3c2	-0.0012503840660065134
15	0xbf7b2e50b01f78ae	-0.006635966479704587
16	0xbf7aedcf9d0d5b9a	-0.006574450483490058
17	0xbf842d136cad7c92	-0.009851600412444737
18	0x3f84eb4ed8780faa	0.010214439374074253
19	0x3f8ce3b3d77de226	0.01410618306521012
20	0xbf843ffb6eff4cab	-0.009887661290042557
21	0xbf8ab3576ff2ff93	-0.013037379363936263
22	0xbf7c1dc51f5d82a2	-0.006864328393789395
23	0xbf713184af63f697	-0.004197614957090721
24	0xbf8560b2fb4543dd	-0.010438345235032226
25	0x3f615677349b2f9f	0.002116425345638675
26	0x3f67a023d9fc5438	0.0028839779114471463
27	0xbf4b7539ed9f5101	-0.0008379490711783178
28	0x3f8d49723c5e5a28	0.01430024382333979
29	0x3f83501ab17d27bd	0.009430130521327013
30	0xbf733c2e4fb3c034	-0.004696064857157057
31	0x3f5729cbaa1f058e	0.001413773432873053
32	0xbf7c2d7114831b8f	-0.006879274100532919
33	0xbf48ee20a2ce6ed2	-0.0007608088832173571
34	0xbf810a8a346e744d	-0.008320884442406884
35	0xbf7e282f2d38ea2a	-0.007362541469371689
36	0x3f895e2014cfa1f0	0.012386561045745176
37	0x3f94deb877c1a9dd	0.020380861577374055
38	0x3f6e22f5f974b6ab	0.0036787800014711123
39	0x3f742d7eb0d47c8b	0.0049261998040314265
40	0xbf6332077e2636e1	-0.002343191751782978
41	0xbf78d396e501d3e9	-0.006061162406798972
42	0xbf8638d1d4fd37d4	-0.010850562393581877
43	0xbf7fbf0b4816d1d6	-0.007750553196661921
44	0xbf7ebec0d20f5cd8	-0.007506135182629957
45	0xbf8d078154d6914d	-0.014174471284441959
46	0x3f7a192e8efcea08	0.006371671552012355
47	0xbf7e05320c630d56	-0.007329173566350397
48	0x3f62e28239f75acb	0.0023052733883831326
49	0x3f85dabb9c0b6ee2	0.010671106052022098
50	0xbf6080f56a64cce4	-0.002014617278427987
51	0xbf5b71559a1006a8	-0.0016749702410837983
52	0xbf8921aa56e0c2ce	-0.012271242882066071
53	0xbf8dcb0cec585c65	-0.014547444307977562
54	0x3f7422f844a4da82	0.004916162297652906
55	0x3f87de6b656d2dee	0.011654700310507384
56	0x3f81c9ad3e604dfc	0.008685449091024637
57	0xbf77d33068695c93	-0.005816639989084343
58	0x3f46d18a321e3adb	0.0006963658126880283
59	0xbf7068f96429ac26	-0.004006361183750895
60	0x3f6b5ef6a589f456	0.003341180545531712
61	0xbf695c8801efc44b	-0.003095880164885522
62	0xbf72b0cf0327e937	-0.004563149110703705
63	0xbf8c7b80293b0eaa	-0.013907433756123428
64	0x3f80e9f276e855d1	0.008258718732615218
65	0x3f570a076fd2a7d2	0.001406199705608281
66	0x3f5d117e6112990d	0.0017741903468873638
67	0x3f6b0f8929de444f	0.003303306481889957
68	0xbf7a6551ba63f0da	-0.006444281816808417
69	0xbf7dbe00bf64155c	-0.007261279030222081
70	0xbf811097ca9b7057	-0.008332429762440237
71	0xbf822f157e6eb26d	-0.00887886802760215
72	0xbf72415d4f328711	-0.004456867685037628
73	0x3f7c6f803c8acc4c	0.006942273067283965
74	0xbf8561792903cf4d	-0.01043982178132521
75	0xbf61ed7b7800b8b3	-0.0021884356974829155
76	0x3f87421e53b7f097	0.011356579713712995
77	0xbf46793bdd9a42af	-0.0006858389198943405
78	0xbf7216751698611a	-0.004415948272729753
79	0xbf76be53772383b9	-0.00555260280290864
80	0xbf81c62f798cc933	-0.008678789994153923
81	0xbf79a0cc1d69d452	-0.006256863902867131
82	0xbf770f9e23c4db1b	-0.005630128606120245
83	0xbf81b7f708a6c5a7	-0.008651666595002562
84	0x3f508dd13124c01b	0.0010103743448546313
85	0x3f8c1899539560af	0.013718793738619032
86	0x3f785b8eaf60c08e	0.005946690906100239
87	0xbf86bc8ab9c92f16	-0.011101802630171725
88	0xbf82d89a8cecfa1d	-0.009202201295576857
89	0x3f491860a0a5eac7	0.0007658454717750168
90	0xbf837380146bf462	-0.009497643111439472
91	0x3f90b4743df842d7	0.01631337764962634
92	0xbf69731c7ac9684a	-0.0031066471331487088
93	0xbf4e1c0a0adb47d2	-0.000918869880218271
94	0x3f536cbcb0f59497	0.0011855929077111743
95	0xbf7bd403ad5b9b18	-0.006793989528637544
96	0x3f21adfb2fb0a7d1	0.0001348847507370286
97	0x3f629e94a0ed9bbf	0.0022728827383846346
98	0xbf774ac00cc46139	-0.005686521715937248
99	0xbf524c3e6df25afe	-0.0011168107664951128
100	0x3f7ce7fd0d54af1c	0.007057178959523982
101	0x3f83394264d9b3b1	0.009386557295522598
102	0x3f7ad7bb47f424ad	0.006553393904377075
103	0xbf4902c880b04128	-0.0007632712380445704
104	0xbf604a2367a942fa	-0.0019884768965215934
105	0xbf6b2ad5fda540d7	-0.0033163241870753746
106	0xbf63cdef5fa45ecf	-0.0024175334230099664
107	0xbf819f49a80350d0	-0.008604598464821228
108	0xbf62e45431fff8ae	-0.002306141323059916
109	0xbf6397a1f9b57bcd	-0.002391640051129218
110	0xbf81f2bbfa66913e	-0.008763760165330422
111	0xbf701ffa4425e698	-0.003936746218067853
112	0x3f85936c84ac029e	0.010535095022988824
113	0x3f6ae5816ff778c5	0.003283264930117632
114	0xbf88d8d1d85791ff	-0.012132300772415226
115	0xbf8847a6a9657035	-0.011855413479388325
116	0x3f51219e2a152ff9	0.0010456127714233417
117	0x3f6d748c54f7bc9d	0.003595613561393997
118	0xbf584495c4e34b83	-0.001481195696716426
119	0xbf6b88885eccc3a6	-0.003361002300515686
120	0xbf61b71e546c3f3c	-0.0021625130060626534
121	0x3f88e9ae002fc825	0.01216445863790134
122	0x3f73c6cca205a7f3	0.0048282617066011
123	0xbf735fdb531c48b4	-0.00473008798305068
124	0xbf523f18f7cdc60d	-0.0011136764362301738
125	0x3f85e9bbafcf26f7	0.010699716856737746
126	0x3f452141fdd09f2d	0.0006448337768505168
127	0x3f6f2b813a975759	0.0038049243928339025
128	0x3f7c747f2203b368	0.006947037327546514
129	0x3f550aa5772ef5f8	0.0012842765688526585
130	0xbf3a074a469e1322	-0.00039716304183228153
131	0xbf7c85994f636f60	-0.006963347308751228
132	0xbf7ec47a11d5c663	-0.007511593660966295
133	0xbf7b8942a2c578d5	-0.006722698494142605
134	0xbf7a1552a85beaab	-0.006367991334395621
135	0xbf48af5ce8feca8d	-0.0007533267653257611
136	0xbf510cc0be9053ef	-0.0010406381864005406
137	0xbf58ad11b4bb569f	-0.0015061066541667623
138	0xbf66b5b303db7daf	-0.002772187842182659
139	0x3f5202f3a6dee39d	0.0010993365681157615
140	0xbf7d044160cbdf70	-0.007084136374707714
141	0xbf85d421b9a77c0b	-0.010658515432565371
142	0xbf87a9e4e9973522	-0.011554516199704216
143	0xbf71c593f0c9837d	-0.004338815586920283
144	0x3f608d871c52c5ae	0.002020610702481127
145	0xbf4bea661ad91bb9	-0.0008519171294175599
146	0xbf4b4f8c6ff6293b	-0.0008334575394866381
147	0xbf5f142a32f90eae	-0.0018968975163184232
148	0x3f86906a171e6d2f	0.011017636137515467
149	0x3f7478e6e647112d	0.004998113585717595
150	0xbf442d61cbbdc894	-0.0006157615202779959
151	0xbf342738210f81db	-0.0003075134309807028
152	0x3f42f9ea68774bac	0.0005791086741119187
153	0xbf91281645c62f6e	-0.01675448227756198
154	0x3f813a51ebb2f04a	0.0084120178274746
155	0xbf3a683ee162ce3e	-0.0004029420391688832
156	0xbf6c529e11b4dbcc	-0.0034573638237378242
157	0x3f8539d4a238efea	0.0103642093664504
158	0x3f5beb41631ce0b8	0.0017040384813764974
159	0xbf57a8011d009b25	-0.0014438639518716348
160	0x3f7260d59d91a219	0.004486879764137552
161	0x3f82817c4517ad75	0.00903603635648296
162	0xbf59264b63741e42	-0.0015350090232589962
163	0xbf7611d0d83f6549	-0.005388084220578301
164	0xbf780b169f37f17b	-0.005869949690801564
165	0xbf83e67fdd6771b4	-0.009716986602989454
166	0xbf21bc1d4b1a1469	-0.00013530595383684792
167	0xbf79b8439cb2bd0f	-0.006279243573927631
168	0xbf7b92e06079bf3b	-0.006731869194126545
169	0xbf69541c2fa08f1a	-0.00309186463438661
170	0xbf755cfa659b35e7	-0.005215623963250127
171	0xbf708e7fcdd4164c	-0.00404214785999597
172	0x3f73f20a7bb0d2f6	0.004869500112410155
173	0xbf6b68c0147d5133	-0.0033458472789026582
174	0xbf9171fad4dfa234	-0.017036360972186596
175	0x3f7242a950c7ecf8	0.004458104504460929
176	0xbf813663cea4e1b1	-0.008404521697784913
177	0x3f32200477ef5b30	0.0002765665921606207
178	0x3f8228075c0cce4e	0.00886541127838494
179	0x3f75591f7b6086d1	0.005211947418531885
180	0xbf903dead41ad91b	-0.015861195751051143
181	0x3f7553e7bfc091e6	0.0052069714256828045
182	0x3f5523f3568e3c67	0.001290309557791658
183	0xbf65ea0b3d5faf50	-0.0026750773931691132
184	0x3f82a10448d99bae	0.009096177552420173
185	0x3f748d8f7eeaf18c	0.005017815142022274
186	0x3f340b8e9d9630d3	0.00030586463761818095
187	0x3f89d55f5ce86105	0.012614007017916604
188	0x3f80b3d2dfd10909	0.008155486541117545
189	0xbf70f1231b6ce87f	-0.004136216294506777
190	0xbf8a5df2926f0676	-0.012874503225137373
191	0xbf6f6a0026510679	-0.0038347247050587977
192	0xbf70db466883ad9b	-0.004115366966498081
193	0x3f7ede520b949845	0.0075362400905643655
194	0xbf7c869f0c75b572	-0.006964322360869845
195	0xbf797121eec16213	-0.0062114072316821365
196	0x3f8e7b485f038706	0.014883580588903832
197	0x3f8dc6937a066990	0.014538910066040939
198	0xbf778ec69bc8b3b7	-0.005751396002364232
199	0x3ed9beca6bd57010	6.138152170844665e-06
200	0xbf7acb9741bae060	-0.0065418156115627235
201	0xbf961b8a63366786	-0.021589433961345182
202	0x3f6d3f9092079ceb	0.003570349086874471
203	0xbf763e0cf3eb2e94	-0.005430269810584715
204	0x3f62143d5411dcfe	0.0022069166012063093
205	0x3f882e503aad29a7	0.011807085791265616
206	0x3f7ec919944b020f	0.007516002577802285
207	0xbf7e90be6187d218	-0.007462257075975497
208	0xbf8a82c37b85a9b9	-0.012944724280448893
209	0xbf75dee0df5a2557	-0.005339506538470338
210	0xbf8095565ee0323d	-0.008097338457468623
211	0x3f6d03074c7178f7	0.0035414831686885156
212	0xbf56702c4f6ea3f3	-0.0013695175855252789
213	0xbf8497f386689e3a	-0.010055449046446719
214	0x3f6d38656ed49969	0.0035669308769172192
215	0x3f7c1e8afd523e3a	0.0068650655058629054
216	0x3f66345db99d254d	0.002710516983743949
217	0xbf7915985298f2f2	-0.0061241102317210905
218	0x3f27529de5019193	0.00017793824599999768
219	0xbf56b10056da27f7	-0.0013849738419673388
220	0x3f78f7d5506d7207	0.006095727213360386
221	0xbf73e90c9c0e98dd	-0.004860924965134764
222	0x3f679ab18f072e66	0.002881380838720737
223	0x3f95200572fdd449	0.0206299640116934
224	0x3f93e9fc7d65f06f	0.019447274354647378
225	0x3f62f3809b32eb8c	0.0023133766022431276
226	0xbf8ad63609bc8a3c	-0.013103887722143097
227	0xbf7213373031d497	-0.004412856654302597
228	0xbf79e31e14cf0548	-0.0063201117563392376
229	0xbf501c9c9d139f33	-0.000983384077978
230	0xbf7bf329b3059446	-0.006823695075898922
231	0xbf5dff1c802c444e	-0.0018308428122433443
232	0x3f94cfe3350a0574	0.020324277984859987
233	0x3f8ea13af327e6d5	0.014955959840324532
234	0xbf4d72d82df6e873	-0.0008987002910807576
235	0xbf650c8c2696e23f	-0.002569459659494094
236	0xbf64f059c6f6f891	-0.002556014391045976
237	0xbf85b1c4dbb3279f	-0.010592973665911219
238	0xbf63a279e90fe0db	-0.002396810632941377
239	0xbf69a461dcd0d03f	-0.0031301413896702985
240	0xbf6e9651cef3f156	-0.003733787328768094
241	0x3f839cf5ea9e484a	0.009576722357255946
242	0x3f91458baa44fe0d	0.016866857783723477
243	0xbf84130a8f633593	-0.00980194330295595
244	0x3f57b8a8c923f47c	0.0014478348062419146
245	0xbf602c3d2454c3e3	-0.001974219720658686
246	0xbf84615b2a786817	-0.009951317056266657
247	0xbf91dcb3bf62c077	-0.017443474346407997
248	0xbf7a545fe0af36ff	-0.0064281220647453
249	0xbf18377c6c96d41a	-9.237954068093448e-05
250	0x3f7436bf167730c1	0.004935022770450271
251	0x3f85353cad2a672f	0.010355447802158217
252	0x3f8cd553c9a732ab	0.014078764525856732
253	0x3f927101a3c0117d	0.018009210223696826
254	0xbf800becea30aa3a	-0.007835245987810702
255	0xbf8885d91a05caf0	-0.011974044901511743
