output_images/models/model-HLS.pkl_02.npy (npy, 49328 bytes, 1 tensors)

array (column-major) f8 [1, 6156]
000000 20 2f 4a 08 e3 22 80 bf 54 45 46 27 05 d8 7e 3f
       -0.007879041376575524 0.0075302316003143695
000010 b4 7e 8f 20 ba 83 7a 3f 49 d3 f1 b1 f6 dc 74 3f
       0.006473280963262763 0.005093539860457971
000020 6a 29 6e 2f 17 8d 85 bf e6 58 a4 f3 5d bd 5e bf
       -0.010523015150984267 -0.0018762032983139997
000030 4e cd 01 7a 54 2e 64 bf f2 ef 4a 6b e0 04 6b 3f
       -0.002463498109187923 0.0032982237993035507
000040 54 24 0b 31 b7 7d 8c 3f 3f b9 ec 86 0b 7f 88 bf
       0.01391165846270518 -0.011961069159579394
000050 02 d3 e2 36 cb 4b 86 3f 1b 40 51 4c e0 65 5d bf
       0.01088675271271589 -0.0017943087016369988
000060 16 c8 78 f3 ad a0 8f 3f df 97 16 02 42 32 76 3f
       0.015443190567655345 0.005419023365368119
000070 ce 30 20 59 d8 ce 6b 3f f9 90 5b 11 0e 70 81 bf
       0.0033945298719172184 -0.008514509110178358
000080 29 b4 95 85 92 75 7b bf 16 4e c9 f0 e5 4c 82 bf
       -0.006703922606317505 -0.008935734186855487
000090 5d 9e 96 4f e8 e3 51 bf 39 54 93 03 e5 8f 7e 3f
       -0.0010919350300841104 0.007461447320754871
0000a0 87 61 27 a8 02 8d 74 bf 8d 7a 67 55 08 bb 6d 3f
       -0.005017290476154185 0.0036292231336426174
0000b0 2e 7d 4a 28 3a bb 79 bf a4 0b c1 bb 1b 41 72 3f
       -0.006282069375316097 0.004456623395585977
0000c0 57 4e aa 4e 89 44 86 3f 5d 76 c9 29 c1 80 82 3f
       0.010872910226033356 0.009034642303215873
0000d0 40 35 ed bf 7e c2 81 3f c1 15 ba 29 be fb 7d bf
       0.008671751243719883 -0.007320158790780907
0000e0 3f e2 ae f6 65 5a 65 3f fe cd fc 93 50 54 80 3f
       0.0026065818287544225 0.007973317638607643
0000f0 cd 33 c1 6e 62 2b 8a 3f 5a 87 0e 93 82 7e 5b bf
       0.01277806187149535 -0.001678111566640847
000100 93 c3 75 9e b3 25 70 bf cd 2f e3 50 c6 0a 6f bf
       -0.003942205082567168 -0.003789317451355223
000110 33 7d ab 46 f7 a5 65 3f 0d 6f d5 ea 09 aa 57 bf
       0.002642615281146421 -0.0014443489884205546
000120 26 95 b0 2d a6 66 73 bf 36 51 3c e9 b2 13 81 3f
       -0.004736565718336727 0.008338353865419462
000130 d6 4c 3e 7b 7b 1d 4d bf 78 a1 f1 7a 11 96 81 3f
       -0.0008885243355386773 0.008587013782929573
000140 fa 4a 5c b7 dc c2 33 bf 92 c3 d2 da 0d 19 81 bf
       -0.0003015316827809502 -0.008348568191964199
000150 77 99 b6 b5 36 53 8b bf 81 cb 6c f1 44 13 66 bf
       -0.01334231130642814 -0.00269473519747393
000160 d9 62 55 b1 d1 3f 7e bf 9d d8 e1 cf b2 48 6c bf
       -0.007385081398148607 -0.0034526340887693478
000170 84 44 81 b7 1d c2 60 3f 5e c9 41 62 b9 c2 3a 3f
       0.0020456867605749846 0.00040833497974470344
000180 39 7e 2e ee 58 b5 8f 3f 6a f2 aa 3c 57 41 67 bf
       0.01548261143562889 -0.002838774094327247
000190 48 f1 27 b0 c3 6b 57 3f 6f 2a 49 b0 9b 14 73 3f
       0.0014295016304678044 0.0046583253466204585
0001a0 d7 11 48 c5 c8 fc 6f 3f ab 66 30 db c2 3a 63 bf
       0.0039047166158090274 -0.00234735544064509
0001b0 d9 63 fc 4f 8d e2 78 bf 04 24 8c 6f c2 d6 76 3f
       -0.006075431825387911 0.005575904383257505
0001c0 a6 24 28 ad a0 cc 75 3f f2 95 6a 33 5f c0 84 3f
       0.005322101251757838 0.010132545239069455
0001d0 54 40 73 2c 52 35 70 bf ac 99 2d 77 3f 82 70 bf
       -0.003957100859409552 -0.004030464088691604
0001e0 05 82 a3 bd d3 4e 72 3f c3 63 e3 bf 58 5f 7f 3f
       0.0044697066425389885 0.007659289052946275
0001f0 38 97 ee 0e ed 7b 4e 3f 33 b4 eb 53 89 a2 4a 3f
       0.0009303004752509786 0.0008128328844044852
000200 7f ac b0 ce 26 4b 7d 3f 9b 29 28 2f e8 05 75 bf
       0.007151748267499091 -0.005132586450154265
000210 96 f2 25 7f f3 47 81 3f 9e 0d 06 92 26 36 76 bf
       0.00843801719451535 -0.0054227358490409865
000220 60 f0 f7 7d 9b aa 56 bf a0 92 cc 81 93 4f 42 3f
       -0.0013834494092171065 0.0005588026284369559
000230 c1 67 33 00 fd de 63 3f d7 f6 af 68 7d ab 8f 3f
       0.0024256650373048754 0.015463809735588736
000240 22 ca e6 60 55 93 87 bf 57 32 81 93 64 be 70 bf
       -0.011511485118579638 -0.004087822795622551
000250 84 d0 4e b9 1f d0 6d bf 24 2c 19 54 ca 25 87 3f
       -0.003639280281698078 0.011302548114278173
000260 c6 9b d4 53 73 6d 40 3f 10 94 47 e2 8a d8 52 bf
       0.0005013287660958702 -0.0011502605713016346
000270 a8 14 8a 4d 97 6c 72 3f 26 d8 84 ec 54 7c 6d bf
       0.004498091723353394 -0.003599325053211383
000280 b6 79 4d 41 d7 71 82 bf 9f df b8 89 6c ca 67 3f
       -0.009006196670893068 0.002904140461193763
000290 1a b7 5b f6 d6 d7 80 3f 14 42 0c 4a 6d 50 7a bf
       0.008224181550271537 -0.0064243573294935526
0002a0 3b f4 f1 45 98 f1 91 3f df 1e 25 d6 91 38 68 3f
       0.01752317358885967 0.0029566620225159736
0002b0 05 e6 ac 02 19 c4 86 3f d5 73 05 8b 5a 64 75 3f
       0.01111621417441012 0.00522265785579364
0002c0 59 e5 ea 55 ee a4 7c 3f 09 38 db 6b 3b 1f 64 bf
       0.006993227957246739 -0.0024562988827261417
0002d0 74 69 21 8e 69 b5 71 bf 8b d8 d4 51 9e a0 71 3f
       -0.00432339890002208 0.0043035683022961775
0002e0 51 77 cc 4f b4 59 78 bf b0 26 1d ae 20 60 89 3f
       -0.0059449237276377334 0.0123903802047097
0002f0 12 fb c8 5e 7a 34 76 bf f4 14 ae 59 58 2b 68 3f
       -0.005421140679174001 0.002950356063083798
000300 e5 7b c9 6d 9e 79 71 3f b4 db 32 31 2c 79 68 3f
       0.00426637541076411 0.002987467110496545
000310 d7 b1 2e 81 d8 5f 84 3f 2a bc 6b f3 76 b5 7f bf
       0.009948436205228823 -0.007741417552764177
000320 5d cb d3 24 e9 d0 69 bf 43 72 0e ab 2a 8a 80 bf
       -0.0031513742056800535 -0.008076032014110562
000330 b3 88 b3 18 2a 80 80 3f b4 1b 97 b6 e8 2f 68 bf
       0.008056954268287652 -0.002952532308629208
000340 84 49 5c c2 c5 81 73 bf e6 30 e9 44 2b 58 62 bf
       -0.004762432572322676 -0.002239307890056097
000350 ef ba 29 c1 93 2e 70 bf 59 81 e6 1d ed 77 79 3f
       -0.003950669447120288 0.006217886197561328
000360 80 25 da 3e e7 cc 59 bf 0b 58 bf 9b 0a b7 80 3f
       -0.001574731660556189 0.008161623838457662
000370 8d 62 b8 6c 1a a0 61 bf b8 71 9e 22 20 bf 92 3f
       -0.002151538477630338 0.018307211029979092
000380 a2 92 a7 5f a5 67 47 3f db 93 0f c0 a1 00 5f 3f
       0.0007142598618058058 0.0018922404853978145
000390 94 7e ca 34 ec 89 4c 3f da 09 e3 4d 15 95 51 3f
       0.0008709338522585202 0.0010731418656609788
0003a0 c6 9a c0 cc 18 c0 7d bf 94 f5 4f e2 42 08 05 3f
       -0.007263275980256173 4.011587251538242e-05
0003b0 f4 1f 20 6a 0a 28 7f bf 32 b9 0b 31 99 e6 f6 be
       -0.007606545144888333 -2.1839880960544327e-05
0003c0 45 c3 12 fb e1 b0 71 3f 26 9e cb dc a1 1d 79 3f
       0.004319079148601916 0.006131775164909514
0003d0 f6 4e dc 95 1b 71 87 3f ea 61 f4 fa 13 f5 83 bf
       0.011446204672700837 -0.00974479302981109
0003e0 e1 8a 2f 39 fa 6c 6b 3f ce b5 70 dc 81 ab 6f 3f
       0.0033478629279540682 0.003865960726691076
0003f0 e5 98 31 01 36 14 7e bf 87 4f 90 61 fc 83 61 bf
       -0.007343493419375434 -0.0021381310766716596
000400 c4 41 df 3e 72 73 47 bf a7 9e 48 99 b3 be 72 3f
       -0.0007156665649237716 0.004576398427651596
000410 31 78 12 9c 17 f5 72 bf 0b f7 c2 ec f3 49 72 bf
       -0.004628269410345041 -0.004465058165974654
000420 a8 7a 5d b6 e5 ff 65 bf 3b b0 33 83 95 08 6f bf
       -0.002685497910462093 -0.0037882728735123806
000430 2d d1 14 ad b1 d5 72 3f b4 b3 05 0c 63 92 5b 3f
       0.004598325774442008 0.0016828505759704905
000440 df 08 6d cb 0e 6c 48 3f 40 ef d4 82 34 72 85 bf
       0.0007453033675590934 -0.010471735232037482
000450 f0 65 c3 b0 47 6b 71 bf b4 64 df e7 f4 87 6a 3f
       -0.004252700844710841 0.0032386573138692646
000460 ef 7e 6d fb 82 58 61 3f 89 5f c0 ad 10 7e 69 bf
       0.002117400955668695 -0.0031118703609642234
000470 cc 52 50 09 53 7d 7e bf cd 02 a0 a2 13 1d 41 bf
       -0.007443737374178649 -0.000522265040899661
000480 27 04 16 4b 20 88 5f bf c1 c5 56 e3 33 20 75 bf
       -0.00192454484599148 -0.005157664001147423
000490 fb 5b 32 0f a7 3b 5f 3f 36 c3 e5 27 de fb 7f 3f
       0.0019063121260722838 0.00780855922344941
0004a0 cc 03 09 f9 e5 26 72 3f cd d5 85 31 2a 95 70 3f
       0.004431627589441111 0.004048504655988561
0004b0 17 ba 26 c9 75 cd 80 bf 75 9f 76 21 bf d1 83 3f
       -0.008204384041929065 0.00967740364906409
0004c0 01 75 05 4d 6e 64 85 3f fc 38 39 0e 4a c6 86 bf
       0.010445462918762251 -0.01112039428622013
0004d0 69 74 b8 e8 e2 7d 45 bf 23 d1 2c 43 90 8f 8b bf
       -0.0006558759645859505 -0.013457419443149881
0004e0 63 e1 f2 a0 6c 56 8a 3f fd 72 37 e6 07 69 79 3f
       0.012860153829351522 0.006203680855347169
0004f0 5f eb e6 c2 26 b4 52 bf aa 56 f2 3f d7 93 7b bf
       -0.0011415842560455675 -0.006732788867471898
000500 32 6f c5 b7 be fc 7e 3f bc 8c 96 b0 0c 9b 76 3f
       0.007565255157114413 0.005518960542221393
000510 11 ca bd 35 b8 6f 4f 3f 39 b2 4f b1 08 e5 6b 3f
       0.000959362932446974 0.003405110337999309
000520 43 39 73 6e 05 9d 67 bf 9f 11 71 82 3e 3f 62 bf
       -0.0028824907381938283 -0.0022274227990541485
000530 f4 47 93 f0 1a f2 73 3f 39 51 21 16 54 73 65 3f
       0.004869561417949687 0.0026184694589038962
000540 45 df 30 75 32 df 67 bf 1e 7d 99 49 b3 e8 66 3f
       -0.0029140458587128292 0.0027965070446921555
000550 7c 29 93 77 a3 a0 7d 3f 24 88 b9 10 4c f1 84 bf
       0.007233274977986755 -0.01022586275138699
000560 79 c2 a0 33 e0 8d 5d 3f cd 5e 51 ce c3 db 85 bf
       0.0018038453549814855 -0.010673074468442146
000570 79 8b ff c5 0b 96 4d 3f ca 56 18 32 d3 62 58 bf
       0.0009028966414884452 -0.0014884054620600156
000580 3e a5 3d 74 25 7d 73 bf d5 fd a7 d0 0e c5 76 bf
       -0.0047580206918181305 -0.00555902278074379
000590 92 76 9b 56 2f d7 74 bf 04 cd 87 aa 17 85 60 3f
       -0.005088028826973139 0.0020165884236519344
0005a0 ee 46 3e eb 8f 3a 86 bf e2 26 f7 f3 9d ca 7a bf
       -0.010853886000208725 -0.00654088688265528
0005b0 74 71 13 91 a7 0b 8b bf fe 4c e1 6c 5d 01 91 3f
       -0.013205823054186473 0.01660676934291149
0005c0 05 ab 47 3c 18 a9 6d 3f d9 83 84 b5 f1 49 85 bf
       0.003620669684314295 -0.010394943572977699
0005d0 f0 79 62 da e7 a2 81 bf 75 44 1e 09 8b 42 7c 3f
       -0.008611499168464015 0.006899397952922039
0005e0 69 38 7c fd c0 2c 46 3f d0 13 48 d0 9b f7 8d bf
       0.0006767217955443552 -0.014632432264088197
0005f0 80 e6 14 92 0c 1b 82 3f 6a ad 54 0a b7 f7 62 bf
       0.008840654571588447 -0.0023153853423047337
000600 03 a5 04 47 e6 db 7e 3f af 0a 6f a1 1e 32 6a bf
       0.00753393127551161 -0.003197727036849805
000610 dc 8a f2 4e cb 1f 8c 3f bf 26 bb f9 13 f5 69 3f
       0.01373251757315102 0.0031686201235502083
000620 f5 9a 6f 19 4c 4f 6b 3f 95 6a f9 37 65 fa 8a 3f
       0.003333710319100342 0.013172903795909444
000630 de 01 e8 d9 7c 35 82 bf 7e 70 da 4a 70 1a 7f 3f
       -0.008891082191440466 0.007593573228998561
000640 9a 9a f6 2d 95 79 5d bf 46 69 76 b4 d2 36 76 3f
       -0.0017990071135984055 0.005423377100124254
000650 f1 82 e5 52 97 a0 76 3f ee 9a 8d 6b 74 00 4d bf
       0.005524245365763334 -0.0008850639779723593
000660 bd 16 e8 50 21 44 72 bf 47 3d 09 ea cd b7 74 bf
       -0.004459505215441415 -0.005058101990086889
000670 41 c1 0d c7 9f c8 5f 3f 35 7e 7c ec 57 44 73 bf
       0.0019399223640129278 -0.004703849270100193
000680 ff 6f 6f 3c 77 44 15 bf ea 75 85 06 14 91 68 3f
       -8.112886199235224e-05 0.002998866188291362
000690 1c bd 06 21 23 4a 7e 3f 28 46 38 5a cd 98 25 bf
       0.007394921515170762 -0.00016477114432737858
0006a0 57 e3 60 a0 ec 23 4e bf c1 22 b7 87 97 9f 6d 3f
       -0.0009198098566748175 0.00361613841753114
0006b0 66 3d ee 19 83 c7 66 3f 91 27 32 f0 ba a2 7a 3f
       0.002780681664667095 0.006502847888563938
0006c0 43 9c 2c af 7d 69 95 bf b1 7d 99 d0 24 a6 5e bf
       -0.020910228554523746 -0.0018706664581243755
0006d0 57 37 7f 61 8b 2a 7a bf df 3d be 08 26 1d 79 3f
       -0.006388229805407728 0.006131313868436432
0006e0 58 cd bc 9c ae 7b 11 bf 79 36 d2 fe 0f b5 8f 3f
       -6.669286011345055e-05 0.015482068027519379
0006f0 1f db e1 81 24 9c 5d 3f 9d 44 94 be 85 e5 64 3f
       0.001807246829711402 0.0025508510776793406
000700 db af 94 64 78 5d 70 3f ec fe f2 7b b5 b6 7f bf
       0.003995390209904993 -0.007742604181828244
000710 4f 88 8a eb f7 a2 68 3f c3 cf ec 03 fb 4c 6e 3f
       0.003007396906768135 0.003698816551514357
000720 35 2a 23 fd 56 60 44 3f 3b 71 ed 1f fe 13 86 bf
       0.000621836161621764 -0.010780320500707865
000730 f4 50 60 09 33 c2 8c 3f bf 89 fe f8 92 70 84 3f
       0.014042280887260429 0.009980343078329732
000740 a9 4a a9 0e 65 92 80 3f 60 ef d7 08 81 67 52 3f
       0.008091725835730772 0.0011233100989320385
000750 59 cf a7 3e f9 4a 6f bf 6d a4 a2 18 2e 27 75 3f
       -0.0038199298917280075 0.005164318145184682
000760 c3 6c cf dd a8 77 61 3f b1 5d b1 9d 7e 74 78 3f
       0.0021322534725932442 0.005970472902013511
000770 b0 66 cb d1 07 f0 59 bf 61 c7 d0 fd db b5 53 3f
       -0.0015831066477204718 0.0012030266145867873
000780 c4 f6 87 2b 6e 2f 72 3f db 07 77 2f 95 8e 81 3f
       0.004439764358264934 0.00857273627378057
000790 43 74 55 ca 2b 1a 83 3f 26 c2 43 2e 4b 73 90 bf
       0.009327261078107557 -0.01606481046559529
0007a0 75 81 a4 fd f8 02 7c 3f 7d 95 f3 40 41 bf 7b bf
       0.00683877241161245 -0.006774191758471712
0007b0 10 64 64 f0 3d cf 88 3f e7 b5 1d b1 96 33 5d 3f
       0.01211403264874103 0.0017823192215148333
0007c0 7a bb 26 ec 40 d4 48 3f e5 22 b9 36 13 8a 6d bf
       0.0007577244762638623 -0.003605878378753468
0007d0 b2 e3 d6 7f 61 a8 90 3f 04 e9 36 1e 21 14 4e 3f
       0.01626732199449394 0.0009179269513233394
0007e0 90 dc 79 6d 04 7d 60 bf 7c 60 0a 71 91 6e 70 3f
       -0.0020127378918988817 0.004011695986854243
0007f0 7e cf 99 68 06 b8 60 bf 6d e8 8f 38 ab 56 66 bf
       -0.00204087497405142 -0.0027268737944697225
